ae.pth (torch, 745122 bytes, 12 tensors)

encoder.0.weight f4 [256, 200]
00000000: f25c a03d 26f4 b5bc 1a10 523d ee42 8fbc
00000010: a5d1 b3bd 7381 38bd d247 133d d7a4 da3c
00000020: 6804 803d ecaa 7e3d 1113 d73c 8858 aa3b
00000030: f882 9fbd 1aae f1bd 90bb cabd eec6 bbbd
00000040: 2ea4 67bd aca3 4cbd 5ba7 17bc c9ca 8b3d
00000050: be70 923d b141 413d fe96 ad3d 1a19 a33d
00000060: 10a6 b0bb 5b0d 6dbb 88e7 e43c 8c0d 0ebc
00000070: 57df 69bd 7826 7abd 6bcf babd 8026 89bd
00000080: ac2a cfbc 0c76 b23d 60a0 fa3d 8a96 e13d
00000090: ee69 513d e04d 713d 881b da3b 5492 24bd
000000a0: 328f a3bc 1443 66bd db41 78ba 137d 0dbc
000000b0: e7ff 9c3d a8cb be3c a332 4c3c 7ffd 1d3d
000000c0: 7f5a 53bc 7e98 b3bc 857b 8e3c 5287 6e3d
000000d0: 5093 ba3d 98d7 c13d 4a51 7e3d e00d f03d
000000e0: 6a99 b73d 5dcf 903c f30f 88bb ff30 96bd
000000f0: 8679 1c3b a236 ccbc 4279 943c b7f9 b73d
00000100: ed74 af3d 1a1c 2d3d 5b5a e83c 7745 d4bd
00000110: 8126 cfbd 5155 48bc 0776 e1bd cd87 66bd
00000120: f3f5 503d 0d7f cabc 1cf7 8d3d 3435 6cbb
00000130: 8aed 7e3d d5f4 e23c 342c 653b 5e78 df3c
00000140: a1b7 c93d 0dbc e03d 7930 103e 28ef f93d
00000150: 0581 213e 2071 373c 3d89 433d 4757 2c3d
00000160: 8cfc 25bc 03ad 88bd 82cf 67bd 2ce9 92bb
00000170: 8c21 aebd a3d7 86bc 3832 8bbc 697c b0bc
00000180: ed0c a4bc 512a cbb9 8cc6 e3bc da64 36bd
00000190: 5b5f 74bc d0aa 49bd 63d9 9bbd 1728 28bc
000001a0: 1933 813d 6241 d23c 0cdd e63d e199 f73d
000001b0: 604c 203e 6bca db3d 0d6d f7bb 2734 2ebd
000001c0: 721b e1bc 5830 9cbc 5893 7ebd fea6 9cbd
000001d0: ce48 53bb 1aac 323d 56da 543d 31d5 853d
000001e0: d450 ffbb 5e10 4bbd e024 5cbd 4103 85bc
000001f0: e78c 0fbd 7ddf 34bd 57e0 973d 3b57 103e
00000200: 3faf 0e3e 9435 ef3d 7090 b73d 8c06 963c
00000210: 9851 80bd 8b5a ce3c 2aa6 ec3b 9a39 91bb
00000220: 1f49 823d c734 053d fe5c d03c 5b32 d9bc
00000230: 6bd4 4d3d 3674 903d 795f bb3c cdce ac3d
00000240: bfff e13c 5729 913d 8a03 803d 9eac 113e
00000250: a801 f53d 87d8 723d fb65 58bd 5a8c 36bd
00000260: d2ef 04bd 4cd3 66bd 5a54 9abd fcc6 27bc
00000270: 1383 c63c 21d0 13bd 6e67 ec3c 4fa8 863b
00000280: 08b9 c53c 7b08 e3bc 8db0 a13c 82ad 99bc
00000290: b842 d6bd 9189 cebd 5897 b9bb 9a09 d4bc
000002a0: d8e2 583d 84c4 7a3d 08d2 ca3b 12e8 8b3d
000002b0: 9271 1d3d f589 edbb aeaa 20bc 309b 6dbd
000002c0: b483 bcbd 5f49 95bc 1a9e d1bc 995a f23a
000002d0: cce9 ac3d 9a31 c63c 5da2 80bc 6d80 90bd
000002e0: 6e73 0d3d ccf5 44bc dd13 ad3a fec8 3cbd
000002f0: 8afe 8e3c 0d35 86bc 131e 0b3d f8a4 223d
00000300: 58a0 ed3c e798 6d3d eef2 4c3d 4111 903c
00000310: 9059 38bc d15c fbbc 6c59 013c 32cd 78bd
00000320: 368d 12bc 9a0c 53bc a605 ffbb a88d 02bd
00000330: 0207 8b3c d45d 8c3d fa44 3abd c576 4abb
00000340: 1d5d 443c cf98 b4bd cbff f43c 6fed 913c
00000350: dfc7 27bd 6562 353d 5286 20bd c923 8dbd
00000360: 4443 203c 0857 2ebc 0ebb 95bd 862d 4f3d
00000370: 54df 923d 18e0 8e3d c394 823d c6a9 c73d
00000380: fef0 5abd b878 4d3d ff61 693c 7181 85bb
00000390: ae3b 8bbc 3878 3dbd 3e9e b13a 719c 01bd
000003a0: 6487 fcbb 6ff6 503d df97 e63b d5c2 383c
000003b0: 0ca9 86bd 71c1 943c 46a3 5e3d 33f1 9dbd
000003c0: e346 50bd ca65 8b3c bf00 0cba cf35 75bc
000003d0: 5ae7 1d3d 1f05 acbc f5e7 32bd 19ef 16bd
000003e0: 5d55 b7bc 2568 033c ea16 f8bc 4659 973b
000003f0: 72ba 7e3d d590 803d 4905 9c3b 9962 a1bc
0.07830228 -0.022211146 0.051284887 -0.01748797 -0.08780221 -0.045045327 0.035957165 0.02668993
0.062508404 0.062174723 0.026254209 0.005198542 -0.07788652 -0.11800785 -0.09899056 -0.09168802
-0.05655306 -0.049960777 -0.009256209 0.068257876 0.0715041 0.04718179 0.08476065 0.07963772
-0.00539089 -0.003617129 0.027942434 -0.008670222 -0.05709776 -0.061071843 -0.09121593 -0.066967964
-0.025288902 0.08713922 0.1223762 0.11015041 0.051126413 0.058912158 0.006656114 -0.040178612
-0.019965742 -0.056216314 -0.00094702624 -0.008635777 0.07665997 0.02329047 0.012463245 0.03857183
-0.012899994 -0.0219233 0.017392883 0.05823452 0.09110129 0.09464949 0.062089242 0.117213964
0.08964808 0.017677004 -0.004152292 -0.07333564 0.0023876145 -0.024928395 0.018124226 0.08983176
0.08567224 0.042263128 0.028363397 -0.10364812 -0.10114766 -0.012227372 -0.1100884 -0.056281853
0.051015805 -0.024718786 0.06931898 -0.0036042454 0.062238254 0.027704636 0.0034968974 0.027279075
0.098494776 0.10973368 0.14080991 0.122038186 0.15771873 0.011196405 0.047738302 0.04207542
-0.010131013 -0.06673624 -0.05659438 -0.0044833627 -0.08502492 -0.016460245 -0.01699172 -0.021543698
-0.020025695 -0.00038750705 -0.027804635 -0.044529773 -0.014915313 -0.049235165 -0.076098226 -0.010263464
0.06308574 0.025665943 0.1127263 0.12089897 0.15654135 0.107319675 -0.0075508417 -0.042530205
-0.027478907 -0.01906602 -0.062152237 -0.07649039 -0.003223944 0.04362116 0.051966034 0.06534804
-0.007791618 -0.049576156 -0.053746104 -0.016236903 -0.035046484 -0.044158448 0.07415836 0.14095776
0.13934039 0.11680141 0.08963096 0.018313669 -0.06265563 0.025189659 0.0072219567 -0.0044319155
0.06361603 0.032521036 0.025434967 -0.02651327 0.050251406 0.070534155 0.022872673 0.084378816
0.02758777 0.07087963 0.06250675 0.14226004 0.119632065 0.059288528 -0.05283163 -0.044567443
-0.032455273 -0.056353852 -0.0753562 -0.010240313 0.024232423 -0.03608716 0.028857913 0.0041094194
0.024136081 -0.027714005 0.019737506 -0.018759493 -0.10461944 -0.100848325 -0.0056637935 -0.025883485
0.05295071 0.06122257 0.0061895885 0.06831373 0.038438387 -0.007249112 -0.009806318 -0.058009326
-0.09204808 -0.018223463 -0.025588084 0.0018490135 0.08443031 0.024193574 -0.01570242 -0.07055745
0.03453391 -0.012021493 0.0013204772 -0.04609012 0.017455358 -0.016382718 0.033964228 0.039708108
0.029007122 0.058007147 0.050036363 0.017586352 -0.011251822 -0.030683907 0.007894855 -0.060742564
-0.0089448 -0.012881422 -0.007782656 -0.031873375 0.016971115 0.06853834 -0.045475937 -0.0030893546
0.011985091 -0.088182084 0.029907128 0.017813412 -0.040962096 0.04428329 -0.039190598 -0.06891591
0.009781662 -0.010640867 -0.073110685 0.050580524 0.07171503 0.06976336 0.0637603 0.097491786
-0.053452484 0.050163954 0.0142445555 -0.0040742685 -0.01699623 -0.046257228 0.0013551188 -0.031643335
-0.0077065695 0.051016267 0.0070371474 0.01127692 -0.06575212 0.018158646 0.05435493 -0.07712021
-0.050848853 0.01701631 -0.00053406873 -0.014966442 0.038550712 -0.020998536 -0.043678243 -0.036849115
-0.022379572 0.008020435 -0.030284364 0.0046187965 0.062189527 0.062776245 0.004761372 -0.019700335

encoder.0.bias f4 [256]
00000000: e1fe 85bc 99c4 533d 1888 96bc 698f 483d
00000010: 3f5a 68bd 6fb5 2c3d 5bf0 8dbc 36c3 4bbc
00000020: bc81 abbc faca 283d a03a 8c3b 1814 ec3b
00000030: a3a3 1b3d a516 00bc 4909 87bd 27a1 023b
00000040: ceb4 59bd e368 fd3c 6e13 883c 4849 abbc
00000050: 43d8 0bbd 275c ae3c 53df b7bc 6ddf 9e3d
00000060: 75ad 9ebd 119d c6bc 5fc4 7fbd ce8f b63c
00000070: 5cf8 74bd 32c4 2dbc e16f 94bd 1fe0 b33d
00000080: d7f8 95bd a030 c03c 1ddd 2bbd 5a6b 11bd
00000090: 6b90 a5bd fd89 883c e9c8 213d b20c 43bd
000000a0: 3427 483d c363 0bbd 60ed 0cbd 7e9c 573c
000000b0: 880f 043d 188f a73c bc98 4f3d 7195 52bb
000000c0: 55d3 313d c34b aebd 9e79 32bc 4681 d4bc
000000d0: 709f 16bd f651 50bd 1c21 ac3c 5d6f 99bd
000000e0: f07b 613d 2c38 b0bd 4873 46bd 509e 55bd
000000f0: bc96 2d3d f098 ac3c 5259 16bd 7a58 22bd
00000100: 01f4 8ebd 9009 f43c 30e9 2fbc 2400 7abd
00000110: fd00 57bd 5060 81bd 9e79 bb3d 1090 4dbd
00000120: ae3c 39bd f3fb 87bd 7cca 4c3d d82f d53c
00000130: 243b 38bd 557f 6abd b214 5bbd c05e 9bbc
00000140: a6a6 d0bc 2e90 83bd 628f cebd 72b9 53bd
00000150: 35bf 17bd 324d 93bc f32d 91bd 4a43 b63d
00000160: 49f6 a43c 359a 83bd 85c8 c6bd caab 36bd
00000170: 5991 143d 1608 67bd 1c17 c93c fd0a 58bd
00000180: c416 89bb 9dad bf3c 8e16 a2bd c458 3f3d
00000190: c539 5fbb 79e5 ddbd 48a2 9cbb 1309 71bd
000001a0: af09 c63c df70 dfbc 91d3 25bd 102f 6dbd
000001b0: e792 68bd 165b 383d 65c8 b93b 8064 a2bc
000001c0: abbf e5bc 7032 dd3b 67c9 68bd 8977 a63d
000001d0: 2cfd 203d c1b0 04bd 87a6 22bd 77af 8dbd
000001e0: d81f 30bd 276c 91bc 2baf 303d 0855 efbc
000001f0: cc9b 11bd bb40 a3bd 2d2f 073d ef68 32bd
00000200: 83d6 2fbd d8b5 31bd 1ba1 453d d942 02bd
00000210: 331c 45bd d65b 0a3b f13b d33c 369a 14bb
00000220: fe12 50bd e608 bebb 7f5c 46bd e481 b53c
00000230: 1f3b 943c 3032 823c b225 8d3c 62fc 693d
00000240: 748b 99bd 2caa 96bd 55ad 74bc 0052 0dbd
00000250: b016 8d3d 90ac 2a3d febf 02bd 6f4e 01bd
00000260: ee5e 8b3d 4650 f33c 1a4a 54bd 83d1 273d
00000270: d16f 433d d618 f9bc fa21 2b3d f5d3 97bd
00000280: 523d e4bc d13e b2bd f8b7 12bd 0cf0 95bd
00000290: e702 2abc a335 abbd 2bba 323d 05fa 80bd
000002a0: 39a5 75bd b3d1 7b3c 9829 0a3d 589a 5e3d
000002b0: cf4d edbb e6f1 0dbd 3227 923c 6394 783d
000002c0: 2a85 08bd 1f98 a73d a92c aabd f619 eb3b
000002d0: 6f4a 0dbd a6e4 d0bc 088c 41bc f73d f33c
000002e0: c47c 39bd f31f 7d3c d4d5 6fbd 2132 bebc
000002f0: 3baa ef3c eb53 e23c 1f95 7bbc e705 033d
00000300: 0654 0c3d 001c 6a3b 3d04 8fbd 86d6 c03b
00000310: 3b25 043d 93c1 87bd 861f aebc c5ac 3ebd
00000320: 52e2 1b3d 967f 61bd f86c 34bd 1e59 dc3c
00000330: 0903 62bd 4d45 2a3d 4bc9 153d e198 4abd
00000340: 73df 733c a951 8b3d 0036 7d3c 68ac 253d
00000350: 2168 0d3c 8137 0fbd e65d d0bc 6461 443d
00000360: 6773 733d 8482 893d 9c1b 983d 0754 cfbc
00000370: 6103 41bd 925c 85bd 26a8 a63d 6b39 433d
00000380: a378 383d 4261 32bd 9059 92bc 90c7 0dbb
00000390: 8017 7e3d b2e5 17bb 82de 903c 6fab 5bbd
000003a0: 89a5 0d3d 3ac4 7d3d c933 cabb 8a2c b1bd
000003b0: 668a f5bc 2dc3 5d3d 52f1 273c 5287 5dbd
000003c0: 196c 473d 9080 0f3d 38cb 69bd ca3d 5c3d
000003d0: 9113 4d3c 9fd9 cf3d 1724 7c3c a4d0 81bd
000003e0: 3de6 99bd 0fc3 743b ff4d 43bd 69ec fabc
000003f0: b735 80bd 3f97 5dbc d250 9a3c bd2e 863d
-0.016356887 0.051701162 -0.018375441 0.04896489 -0.05672669 0.042165216 -0.017326524 -0.012436679
-0.020935886 0.0412092 0.0042794496 0.007204544 0.037997853 -0.007817899 -0.06593568 0.001993248
-0.053150944 0.030933803 0.016610827 -0.020908967 -0.03414179 0.021284176 -0.022445356 0.07757459
-0.07747928 -0.024244817 -0.062443133 0.022285368 -0.059807166 -0.010605859 -0.07247902 0.08782982
-0.07322853 0.023460686 -0.041958917 -0.03550277 -0.08084186 0.01666736 0.039498243 -0.04761953
0.048865512 -0.034030687 -0.034406066 0.013159869 0.032241374 0.020453975 0.05068277 -0.003213253
0.043414433 -0.08510544 -0.010893254 -0.025940549 -0.036773145 -0.050859414 0.021011882 -0.07491944
0.055049837 -0.08604464 -0.048449785 -0.05215293 0.04238008 0.02106902 -0.036706276 -0.03963516
-0.06980134 0.029789716 -0.010736749 -0.06103529 -0.052491177 -0.06317198 0.09154056 -0.050186217
-0.045223884 -0.066398524 0.04999779 0.02602379 -0.044978276 -0.05725034 -0.053486533 -0.018966079
-0.02547009 -0.064239845 -0.10085942 -0.051690526 -0.037047584 -0.017981146 -0.07088842 0.08899553
0.02013697 -0.06425897 -0.09706215 -0.044597425 0.036271427 -0.056404196 0.024547152 -0.052744854
-0.004183622 0.023398215 -0.07914458 0.046715513 -0.0034061533 -0.10834784 -0.0047800876 -0.058846544
0.02417454 -0.0272755 -0.04048497 -0.05790621 -0.056780722 0.04500874 0.005669641 -0.019823313
-0.028045496 0.0067503974 -0.056832697 0.08128268 0.039303944 -0.03239513 -0.039709594 -0.06918233
-0.04299912 -0.017751766 0.043135803 -0.02921535 -0.03554897 -0.07971331 0.033003975 -0.043557104
-0.042929184 -0.04338631 0.048249345 -0.031802032 -0.048122596 0.0021111867 0.025785418 -0.0022674925
-0.050799362 -0.0057994006 -0.048428055 0.022156663 0.018094597 0.015893072 0.017229889 0.057125457
-0.07497302 -0.073566765 -0.014933904 -0.03450203 0.06889093 0.041668475 -0.03192138 -0.03156894
0.06805216 0.029701363 -0.05182848 0.04097129 0.04771406 -0.03040735 0.04178045 -0.074134745
-0.027861271 -0.087033875 -0.035819978 -0.07321176 -0.010376669 -0.0835984 0.043634575 -0.062976874
-0.05997202 0.01536982 0.033731073 0.054346412 -0.0072419415 -0.03465452 0.017840955 0.060688388
-0.03333012 0.08183312 -0.083092995 0.0071747256 -0.034494814 -0.025499653 -0.011813171 0.029692633
-0.045285 0.015449512 -0.05855353 -0.023217263 0.029255977 0.027627906 -0.015355377 0.03198805
0.03425982 0.0035722256 -0.0698323 0.005884948 0.03226207 -0.06628718 -0.021255266 -0.046551485
0.038057633 -0.055053316 -0.044049233 0.026897963 -0.055178676 0.041569997 0.03656892 -0.049462203
0.014884817 0.06802685 0.015454769 0.040447623 0.008630783 -0.034965042 -0.0254354 0.04794444
0.059436228 0.06714347 0.07427141 -0.025308622 -0.047122363 -0.06511797 0.081375405 0.04766218
0.045036923 -0.043549784 -0.017864972 -0.002163384 0.06203413 -0.002317768 0.017684225 -0.05363029
0.034581695 0.061954714 -0.006170724 -0.08651073 -0.02997322 0.054141212 0.010250406 -0.05408413
0.048687074 0.035034716 -0.05707857 0.053769864 0.012516872 0.1014893 0.015389464 -0.06338623
-0.075146176 0.003734771 -0.047681805 -0.030630307 -0.06260245 -0.013524829 0.018837366 0.06551883

encoder.2.weight f4 [128, 256]
00000000: b582 cc3d cec7 f63c 1811 eb3d 7ec1 29bd
00000010: 0b77 073c 2867 1a3b 16bf 99bd 3262 7e3c
00000020: 1720 79bd 99c7 49bc 370b 9d3d 5b60 cabd
00000030: f65f bebd 9bf5 d23d 2286 af3d 3332 ff3b
00000040: 51b2 7c3d d8f9 133d b975 6e3c 95a7 9abb
00000050: 9a3b f2bc 0243 2dbd 5de2 7a39 73ea 00bd
00000060: 93d7 533d b837 7bbd e1bc 273c 67cf 7e3c
00000070: add8 19bd 3b70 62bd d2a8 c1bd 9a9a 953d
00000080: f3ee 043d 72a6 5e3d 3618 2abd 32f4 d2bc
00000090: 1c32 9d3d 9091 183c 56ca 703c 3fcd 9ebc
000000a0: a86d 3a3d 258a 84bc 14b9 8cba 53ea 743d
000000b0: 8321 3ebd 0707 043c 6f5e fb3d f29b 14bd
000000c0: 4bd0 24bd d121 67bc b5bf 2d3e 2641 9fbd
000000d0: 207e a3bd 00d9 c9bd c723 fc3c 47fe 353d
000000e0: aa22 b0bd 14b2 a7bd 09da 14bd 8532 9d3b
000000f0: 0ec0 e43b 4972 a13d 1963 8d3d 3fb8 053d
00000100: c699 283d 26ac 8d3c 7a85 2f3d 9573 94bb
00000110: 14c0 06bd 591f 2fbc d14c c53b eff8 0cbd
00000120: 7c65 4dbd eece cb3c 61f2 6e3d 5ef4 ef3c
00000130: 29c4 b8bc 9aec 9cbc ef90 adbd 1950 d8bc
00000140: f698 febc 2260 113e 508e d23c 992e e0bc
00000150: 895d b2bb 6155 9eba 21e0 b1bd 51a8 1abd
00000160: bd97 11bc 4245 3bbe efc0 f7bd 3a1e b3bd
00000170: f626 7f3d fddd 90bd 0cfb 73bc 9f2c a73c
00000180: 53ed 243d 6ba4 70bd b914 25bd 7e52 63bc
00000190: b32b 85bd 6ba1 07bd cbec 71bc 388b 88bc
000001a0: ca75 133d 880a debc 718c b9bd 49dd 8abd
000001b0: 3efa 8b3a 98d5 df3c 65ec 013d 7367 ffbb
000001c0: d0d5 7d3c 6437 2ebc 8d56 7bbd 15a8 243d
000001d0: f91a 7b3b fb5d a03c 82a5 2c3d b481 eebc
000001e0: 9bd4 a03d d15c 503e a7bc 173c 3609 8abc
000001f0: 31b2 3c3d aff0 4abd 8c4d c9bc eb06 52bb
00000200: 5cfb 8cbc 38bb 1fbc 9c5a c13d eb9b 733d
00000210: c031 a3bd b85a 07be 0e09 d93d 2640 85bd
00000220: fe4d c6bd d49c 10bd 44a7 d63c 2b12 7f3b
00000230: a16a 863c 52bc 183d d14e ea3c ac29 18bc
00000240: 0020 63bd 912d 76bd a084 ddbc 020b ac3d
00000250: f098 5d3d fe88 82bc c445 bfbc 8861 7bbd
00000260: 8684 5f3d 0c7b d0bc 047e 72bc 4c59 af3c
00000270: 0e3d 99bc 78a5 223d 384d 8abc b0b8 9a3c
00000280: 09d5 bd3c d80e 123d ead2 d23c 6ec5 0cbd
00000290: 9ff4 b3bb 3a4b b3bd 1817 1f3d 6e3b e63c
000002a0: c1a3 b53c b994 07bd 5a89 7d3b 30ab d6bc
000002b0: d837 153d 0876 6fbc 382c 90bc 7484 3cbd
000002c0: bc42 f63d b89b cbbd 5ee7 b23d cfe8 d4bd
000002d0: 8cc0 f53b 4209 61bd c8de 843c 8e9e debb
000002e0: 6f48 c13c eae4 843c d957 b33b 5189 023d
000002f0: 66c5 0cbe 5bdc 083d 2f99 4cbc 7b10 a1bd
00000300: 6276 7e3c 0289 333b 6fb7 0a3c 6935 093c
00000310: 5e3c 88bd b1fd debd c316 d03c 5bd1 93bd
00000320: eceb ac3c 1203 143d 6e2d 3b3d a306 16bc
00000330: 56fd 8fbc 443d e63d 01bb acbd 3be2 b63c
00000340: c83c abbc ed2d ea3d 9196 363d 6384 3a3d
00000350: 0210 17bd 1bf5 0d3d b512 b9bc e655 a43b
00000360: 3ee4 1a3d 3f46 44ba 7405 90bd 8029 123e
00000370: 103d e2bc 7a31 9dbd a8f1 b1bc 7707 153d
00000380: 9a6b 4bbd 223b 9ebc 62d5 0dbc 7fa6 96bd
00000390: a11b 413d 42ee 77bc 80f8 b1bc 1e10 223b
000003a0: 2583 d73c fb29 08bd fbb1 b0bc ddd3 e4ba
000003b0: 9d15 9f3d d935 3f3c 3148 c0bd 8a48 ae3d
000003c0: 01f6 623d 9ed9 e73c 1d7d d1bb 763b 5dbd
000003d0: 56df 253c 5176 a43b 1481 8abd 042c 733d
000003e0: 6e9f bb3d fea6 a73d b735 4a3c 2bb2 91bd
000003f0: 987f ce3c ca8e 253d db9c 043d 3666 84ba
0.09985868 0.030124571 0.1147787 -0.041444294 0.008268128 0.002356002 -0.0750715 0.015526341
-0.06082162 -0.012315654 0.07668155 -0.098816596 -0.09295647 0.10300752 0.08570506 0.0077879666
0.061693493 0.03612694 0.014554434 -0.0047196844 -0.029569436 -0.04230023 0.00023926185 -0.03147359
0.05171926 -0.061332434 0.010237903 0.015552378 -0.037560154 -0.055282813 -0.09456028 0.073048785
0.032454442 0.054357953 -0.041526996 -0.025751207 0.07675573 0.009312049 0.014696678 -0.019384978
0.045514733 -0.016179154 -0.001073631 0.05979378 -0.046418678 0.008058316 0.12273871 -0.036281534
-0.040237706 -0.014107184 0.16967662 -0.07776098 -0.07983041 -0.098558426 0.030778779 0.04443195
-0.08600362 -0.081882626 -0.036340747 0.004797282 0.0069809025 0.07883126 0.06903667 0.032646414
0.041162275 0.017294 0.042851903 -0.00453038 -0.032898024 -0.010688626 0.00602112 -0.03441709
-0.05014561 0.024878945 0.05833662 0.029291328 -0.022554474 -0.01915579 -0.084749095 -0.026405381
-0.031078797 0.14196828 0.025702626 -0.02736597 -0.005443279 -0.0012079888 -0.08685327 -0.037758175
-0.008886275 -0.18288139 -0.12097346 -0.08746 0.062293015 -0.07073591 -0.014891397 0.02040702
0.040265393 -0.05875055 -0.040302966 -0.013874648 -0.065024756 -0.033112925 -0.0147659285 -0.016667947
0.036001004 -0.027104631 -0.0905999 -0.06780488 0.0010679436 0.02732353 0.031719584 -0.0077943145
0.015492871 -0.010633323 -0.061361838 0.040199358 0.0038315638 0.019576063 0.042150028 -0.029114582
0.07853051 0.20347907 0.009261287 -0.016850095 0.046068374 -0.04954594 -0.02457311 -0.003204758
-0.017209701 -0.009749226 0.094411105 0.059474867 -0.079684734 -0.132182 0.1059743 -0.06506376
-0.096828446 -0.035305813 0.026202805 0.003892074 0.016408266 0.03728897 0.028602036 -0.009287279
-0.05545044 -0.06010205 -0.02704078 0.08400537 0.05410093 -0.015934464 -0.023348697 -0.06137231
0.054569744 -0.025449298 -0.014800552 0.021404885 -0.018705871 0.039708585 -0.016882524 0.018886894
0.023172872 0.035658687 0.025735337 -0.03436797 -0.0054918076 -0.08754583 0.038840383 0.02810451
0.02217281 -0.033100817 0.0038686604 -0.026204675 0.03643021 -0.014615543 -0.01759921 -0.046024755
0.12024447 -0.0994181 0.08735536 -0.10395967 0.00749976 -0.05494047 0.016219512 -0.0067938035
0.02359411 0.016222436 0.0054731187 0.031869236 -0.13747177 0.033413272 -0.012487694 -0.078644715
0.015531154 0.0027394895 0.008466586 0.00837455 -0.06652139 -0.108882315 0.025401479 -0.07217666
0.02110859 0.03613574 0.045697622 -0.009156856 -0.017576855 0.11242154 -0.08434106 0.022324672
-0.020903006 0.11434541 0.044577185 0.04553641 -0.0368805 0.03465758 -0.022591928 0.0050151227
0.037815325 -0.0007487274 -0.0703229 0.14273643 -0.027617007 -0.076754525 -0.021721676 0.036384072
-0.049663164 -0.019315306 -0.008656831 -0.07355975 0.04714549 -0.015132489 -0.02172494 0.0024728845
0.026307652 -0.03324316 -0.021569243 -0.001745816 0.07767794 0.011670553 -0.093887694 0.085099295
0.05541039 0.02830201 -0.0063930885 -0.054011784 0.010124048 0.005018987 -0.06762901 0.05936815
0.09161268 0.08186148 0.012341908 -0.07114061 0.025207326 0.040419377 0.03237615 -0.0010101262

encoder.2.bias f4 [128]
00000000: 8cbc 553d 3f5c 55bd 41fa 8bbd 4def 4dbd
00000010: 5137 4cbd 0cf4 76bd e558 2a3d fc12 26bd
00000020: a5d5 3eba a80b 98bd 1b24 913b 0b61 95bd
00000030: 67df 1abd 3a31 413c b4b7 2bbd 5d80 d8bb
00000040: 010a a2bd 7b9b a33c 9a7c 91bc c9da a8bd
00000050: 2b02 173c c5b4 97bb d7cc 74bd 58e0 20bd
00000060: 4b29 a6bd 650f b3bc c888 ecbc 5cf1 4dbd
00000070: 142d 74bd 005a 063c 35f8 eb3c f0e6 b2bc
00000080: 0527 2a3d c52f f9bc 63a1 e0bc b763 0dbc
00000090: 058c f0ba 577d 7fbd f637 133d cd43 a1bc
000000a0: b233 323b ff88 2d3d 7c84 a43c 82dd e6bc
000000b0: 7cfb 07bd 9687 23bd 50b1 91bd 8dd1 853d
000000c0: c860 943d f6a8 153b cab5 c63c 36c8 5dbd
000000d0: e300 993c 3053 08bc 15c8 42bc 2ca1 3d3d
000000e0: 9866 21bd 123a b3bc 6ee7 70bc 3773 3e3b
000000f0: 09ed 1a3d f5f6 063c 9cc2 9cbc e9a2 933c
00000100: 97bd f0b8 a731 3e3d 342e b7bb c76c 1a3d
00000110: 67c4 523c 202b 9bbd 361e dc3b 7594 3a3d
00000120: 16cf 223c 2d97 95bb aa3d 663d b2c0 4b3d
00000130: 5543 fabc bb9b 2dbd 22b2 a43c b2e9 883c
00000140: 3839 413c 914f 30bd 0d34 b8bc 3369 153d
00000150: 9151 2c3c b014 fc3c 68c3 573d 4c44 13bb
00000160: 2519 5dbc 57d5 283d 1c73 15bd b32a 153c
00000170: 2845 45bd a6ee 11bd fbfc 4e3d 4ce7 1abd
00000180: 9872 aa3c 948f 713c 1651 243d fa18 14bc
00000190: 1111 3b3d aced 5dbd d999 413d 1b71 bbbc
000001a0: b9c6 d0bd 9b5e 0a3d f3a1 a9bc d7ea 5b3d
000001b0: 6e0e 5a3d 305c 70bd 8460 6bbc e3c2 29bd
000001c0: db46 103d caa1 63bd a795 bfbd d748 82bd
000001d0: 8673 43bd 33f0 68bd 29b7 d03c 13da 8c3c
000001e0: 529a 43b9 30e5 4fbd a6ae db3b ac7c 6f3d
000001f0: f807 23bd a995 aabb bd78 01bd 2656 083c
0.052181765 -0.052089926 -0.068348415 -0.050277043 -0.04985744 -0.060291335 0.041588683 -0.04054545
-0.00072797603 -0.07424098 0.004429353 -0.072939 -0.03781071 0.011791522 -0.04192324 -0.006607099
-0.07912064 0.0199716 -0.01775961 -0.08244855 0.0092168255 -0.0046297037 -0.059765663 -0.03927645
-0.08113345 -0.021857927 -0.028873816 -0.050279006 -0.059613302 0.008200169 0.028804878 -0.021838635
0.04154112 -0.030418286 -0.027420705 -0.008629731 -0.0018352276 -0.062375393 0.03594204 -0.01968565
0.0027191457 0.042366978 0.020082705 -0.028181795 -0.03319882 -0.039924227 -0.07113898 0.06534109
0.07245022 0.0022836304 0.024256606 -0.054146014 0.01867718 -0.008320615 -0.011888524 0.046296284
-0.03940448 -0.021878276 -0.014703615 0.0029060373 0.03782371 0.00823759 -0.019135766 0.018022018
-0.00011479406 0.04643407 -0.0055902246 0.037701394 0.012864209 -0.07576585 0.0067174686 0.045551736
0.009937068 -0.0045651407 0.05621115 0.049744315 -0.030549685 -0.042384844 0.020104472 0.016712997
0.011793427 -0.04304463 -0.022485757 0.03647728 0.010517494 0.030771583 0.05267659 -0.0022471128
-0.013494764 0.04121908 -0.03648673 0.009104419 -0.048161656 -0.035627984 0.05053423 -0.03781824
0.020806596 0.014743704 0.040116392 -0.009039158 0.045670573 -0.05418174 0.04726586 -0.022881081
-0.10194153 0.03378163 -0.020707106 0.053690758 0.053236417 -0.058681667 -0.014366273 -0.041445624
0.035223823 -0.055574216 -0.09354716 -0.06361549 -0.047717594 -0.056869697 0.025477963 0.01719383
-0.00018654138 -0.05075568 0.0067041693 0.058468506 -0.03980252 -0.005205829 -0.031609286 0.008321321

encoder.4.weight f4 [64, 128]
00000000: 7cb3 9fbd b9e4 8c3d 6130 debc 0dec 15bd
00000010: a38f a33d b852 e6bc 12a4 ae3d 14b8 603c
00000020: 0bc8 2bbc e046 903d 2c27 babc b8b0 9c3c
00000030: 631d b83d 0f83 fc3d 4ddb f33c 0272 bebc
00000040: 6093 1e3c 42c8 ac3c 5d89 2fbd c87b 48bd
00000050: 991c f63c 226f 1ebd 6c64 553d 2c94 7fbd
00000060: 2414 dc3d 3d69 06bb 4c48 7bbd dd7b 243d
00000070: 9881 4abd 844b acbd df9d 0ebd 4d43 7e3d
00000080: 269b 7e3d d69a c03d 2508 cb3b ae70 69bc
00000090: 7bab acbd b468 9c3d df59 99bd 57ea 16bb
000000a0: ef9d 8cbd 8cdc 49bd 7b6c e23c a3b2 a73d
000000b0: a0b6 e83c 725b 0a3d 0381 a6bc df2e 98bd
000000c0: f8c7 ef3c 22ba 42bd 4e83 7fbd f0eb c23d
000000d0: 4081 3bbd e839 b43c f215 a3bd 165b b73d
000000e0: 1fe2 99bd 140b a33d 5d65 313d f53d 7dbc
000000f0: da13 6bbd ae27 c8bd 093f 573d 2a2f 933d
00000100: 81bf f73d 916f 873d 54c0 7fbd ca83 16bd
00000110: a2b6 d8bd a461 9b3c cf9e 573d 7f2a 163d
00000120: 6a00 2dbd a7bb 923c bfa8 2c3d 0803 89bd
00000130: e2c7 a83d 277d 9ebd 5092 a0bb 8b98 37bc
00000140: 338c 993c cbdb 28bd 01c6 37bd ff7d bc3d
00000150: 9ad3 cbbd b8a7 cfbc e389 4d3d 2aca 723d
00000160: ebf0 a83d c31d 993d 2fa9 29bd bf02 02bc
00000170: 40b8 c13d 9ce8 cdbd 31c0 90bb 0a36 3ebd
00000180: c2be f8bc 60a1 803d b1ef 3abd 7ffb 0e3e
00000190: e45b 793d ed6e da3d 5aa8 c53d c8f1 babc
000001a0: f053 35bd 039b 99bd bda5 b13b 5e7e 0b3e
000001b0: 61d9 283d dedb a5bd 791e c43c 42de b53b
000001c0: c791 38bb 9967 ac3c 2214 c0bc bff9 85bd
000001d0: d42d 773d 13ff b93c 3e16 2bbd e908 b7bd
000001e0: 31ba 003d 2391 9cbd 2771 c5bc 1834 b8bc
000001f0: d954 723d f8a8 57bd 2b87 a8bd 98a0 7fbc
00000200: 7946 ee3d 2d4c ddbb 7b6b 39bd 929c f9bc
00000210: d69e 81bc 0cf5 ef3c a9ed 353e 5feb eb3c
00000220: ffe9 023d 4c53 353d 682f 4fbd 1e9d 7a3c
00000230: f055 a83d b023 b0bc cc58 423b fe17 3cbc
00000240: c2d6 4abc 4fb0 bd3d 5ae5 4dba 03e8 cb3d
00000250: a0ff 363d 5c92 d53d 67c0 0c3d 1098 84bd
00000260: 49c9 f7bd 3c3d ae3c ca71 fabd 2d06 a13c
00000270: a14a 98bc 61ce 093d f8fb d43d 8479 143c
00000280: 0843 38bd 6995 ba3c 394c e33d eced c53d
00000290: 0ffc 4abd 5f6b 95bd 1133 5b3d bb40 7a3d
000002a0: 7271 523c c238 963d a5ad 89bd 9e0c 3abc
000002b0: dd0e a5bd 96ee a23d a3b1 b13d 7ad7 db3b
000002c0: 63fd f53b 3344 86bd 58a8 833d 8c99 8bbb
000002d0: 13cc b7bd 0af9 233d e694 a8bd eb8e 4dbb
000002e0: 287b 59bd 32ef c33d d02c 75bd 0070 9c3d
000002f0: 84ee bd3c a245 473c 838d 103d 1c3b 003d
00000300: 3f35 3f3d d506 893d a673 c03b 80a8 b73d
00000310: 265d c5bd e8a6 d4bc d029 7e3d c4ec c3bc
00000320: 0b80 9bbd 98a4 b4bd 43df a8bd 5bc8 81bc
00000330: 2f8b 64bd 1901 57bd 0c49 db3c a53b d7bc
00000340: dee9 a9bb c400 8c3d ed20 4f3d af5c b83c
00000350: a6d5 f7bd 6f5f 243d 850f 71bd ce53 8a3d
00000360: c5f2 c7bd 70c0 963c b2be 09bd 6bbe c73c
00000370: fffd 663d addc 2dbd d66e 8d3d cc50 d03a
00000380: b446 d03d 493e ffbd 80b8 b13c 3547 42bc
00000390: d35a 693d c2be 953c 76b9 64bc 6974 50bd
000003a0: d383 843d 760e 1dbc 9a89 ddbb 67d8 cc3d
000003b0: 1e5b 90bd 51b6 443a d619 243d fd46 db3b
000003c0: 07db 8d3d 9123 14bc b920 96bc 6572 383d
000003d0: 1f08 5f3d e901 c43d ddbf 77bd 1efb 813d
000003e0: 7e20 ee3d 4b69 23bd 948b 21bd 53c9 8ebc
000003f0: 7095 fe3c 1756 16bd 1372 d1bd 1628 c23d
-0.07797906 0.06879563 -0.027122678 -0.03660207 0.07986381 -0.028115615 0.08527388 0.013715763
-0.010484706 0.07044768 -0.022723757 0.019127235 0.0898998 0.12329685 0.029767657 -0.023247723
0.009678692 0.021091584 -0.04285561 -0.048946172 0.030042933 -0.038680203 0.052097723 -0.062397167
0.10746029 -0.0020509504 -0.061348245 0.040157188 -0.049439996 -0.08412841 -0.034818526 0.0620759
0.06215968 0.094045326 0.0061960393 -0.014248056 -0.08431145 0.07637158 -0.07487845 -0.002302786
-0.06866061 -0.049282596 0.027639618 0.08188369 0.028407395 0.033778615 -0.02032519 -0.07430815
0.029270157 -0.04754079 -0.06238108 0.09517658 -0.04577756 0.022000268 -0.0796317 0.0895292
-0.07513832 0.07961097 0.04330956 -0.015456666 -0.05739198 -0.09773193 0.05255035 0.0718673
0.12097073 0.066130765 -0.062439278 -0.036746778 -0.105817094 0.018967457 0.052641686 0.03666162
-0.042236723 0.017911745 0.042153116 -0.06690031 0.082412496 -0.07738715 -0.0049002543 -0.011205803
0.01874361 -0.041225236 -0.044866566 0.09203719 -0.09952469 -0.02534853 0.050180327 0.05927483
0.082490765 0.0747638 -0.04142111 -0.007935225 0.09458971 -0.10054132 -0.0044174423 -0.046438254
-0.030364398 0.0628078 -0.045638744 0.13963126 0.06087865 0.10665689 0.09651251 -0.022820368
-0.044269502 -0.07500269 0.005421369 0.13622424 0.041222934 -0.08098577 0.023940312 0.005550177
-0.0028163062 0.021045493 -0.0234471 -0.06541776 0.06034644 0.022704637 -0.04176926 -0.08937246
0.031427566 -0.0764487 -0.024101807 -0.022485778 0.05916295 -0.052651376 -0.08228906 -0.015602253
0.11634535 -0.0067534656 -0.045268517 -0.030470166 -0.01582281 0.029291652 0.17766441 0.028798757
0.031961437 0.04426889 -0.05058232 0.015296249 0.08219516 -0.021501392 0.0029654978 -0.01148033
-0.012380304 0.09262144 -0.00078543054 0.09956362 0.044677377 0.104283065 0.034363177 -0.06474316
-0.12098939 0.021269433 -0.12228735 0.019656265 -0.018590273 0.033644084 0.10399622 0.009062175
-0.0449858 0.022776322 0.11098523 0.096645206 -0.049556788 -0.0729587 0.053515498 0.061096888
0.01284443 0.073350444 -0.06722573 -0.011355547 -0.080594756 0.07955663 0.0867646 0.0067090364
0.0075070127 -0.06555977 0.064285934 -0.0042602476 -0.08974471 0.040032424 -0.08231525 -0.0031365703
-0.053095967 0.09567107 -0.05985719 0.0763855 0.023185022 0.012162598 0.035291206 0.03130637
0.04668164 0.06690756 0.0058731614 0.08967686 -0.09636907 -0.025958493 0.062051594 -0.02391661
-0.07592782 -0.08820456 -0.08245709 -0.015842607 -0.0557968 -0.05249128 0.02676823 -0.026273558
-0.00518535 0.068360835 0.05056851 0.022505132 -0.12101297 0.040130075 -0.05885269 0.06754266
-0.097631015 0.018402308 -0.033629127 0.02438279 0.056394573 -0.04244678 0.06905906 0.001589322
0.101697356 -0.12463052 0.021694422 -0.011857797 0.056971382 0.018279437 -0.013960233 -0.050892267
0.06470456 -0.009585967 -0.006760788 0.10002213 -0.07048629 0.0007503974 0.0400637 0.006691812
0.06926542 -0.009041683 -0.01832615 0.04503097 0.054451104 0.09570677 -0.06048571 0.06346725
0.11627291 -0.039895337 -0.039439753 -0.017429983 0.031077117 -0.036703195 -0.10226836 0.09480302

encoder.4.bias f4 [64]
00000000: 7a83 043d 5033 2f3d 0679 f33c 072d 9abd
00000010: dd41 dabb 87f9 b23d 13e8 2b3c cff9 83bd
00000020: 26f2 3abd 4093 5fbd 969c 933c 84c6 8ebd
00000030: 5d0b ba3d d169 883d b6b7 1dbd 64d6 81bd
00000040: 460c 143d db39 9f3d 5de6 65bd affc 8dbc
00000050: ad24 963d ce1d 083c b55e 153b 4a7c 973d
00000060: 8ed7 9cbd 6c68 563d 4f4e d0bc b9eb b4bd
00000070: a006 9cbd bca5 f83c c21b b93c df08 a2bd
00000080: 43b7 493d 684e 1bbd b6f4 9abd 1a14 82bd
00000090: 7edf a4bd ae23 c9bc b9e4 4b3d 4f62 c93d
000000a0: b02d 193d 76c9 e7bb 9932 67bd d3ec 17bd
000000b0: ceb6 143d 8a63 6d3d b59a 71bd 154a b63c
000000c0: 08fe 8dbd d52d 913c 32ec ca3d 7027 a4bd
000000d0: 33e8 833d 7098 9dbd 098c 47bc b4aa 58bd
000000e0: 3a6d 073d 8ecc 8b3b e906 f03c 685f 7d3d
000000f0: 00f1 c83d a5d7 40bc 77fc d93d 30b3 84bb
0.03235195 0.042773545 0.029720794 -0.075281195 -0.0066606835 0.08739 0.0104923425 -0.064441316
-0.045641087 -0.054583788 0.018019002 -0.069714576 0.090841986 0.06660808 -0.03850528 -0.0633972
0.036144517 0.07774707 -0.056127895 -0.017332403 0.07331214 0.008307887 0.0022792045 0.07396753
-0.07658301 0.05234568 -0.025427965 -0.08834023 -0.07618451 0.030352466 0.022596244 -0.07911848
0.049247038 -0.03791657 -0.07566206 -0.0635149 -0.0805044 -0.024553146 0.049778674 0.09833204
0.037397087 -0.0070735766 -0.056444738 -0.037091088 0.03630715 0.057956256 -0.05898543 0.022252122
-0.06933218 0.01772205 0.09908332 -0.080153346 0.06440773 -0.07695091 -0.012179383 -0.05289717
0.03306315 0.004266328 0.02930017 0.061858565 0.09811592 -0.011770164 0.10643857 -0.004049681

decoder.0.weight f4 [128, 64]
00000000: b26b 3e3d 1b85 e6bc 308d a2bd 66a7 68bd
00000010: 7cae c4bd 247a 043e 97d3 e4bd 51df bbbd
00000020: ac39 aabd 685f 8dbc 2bf2 a4bd c438 24bd
00000030: 5b34 53bd 23bf ebbd dcce 873d 08a2 f43d
00000040: a49c 81bc be68 dc3d a2b8 623d 25f9 eb3d
00000050: 8b44 7fbb 40d4 d53c c1b0 d23c 3ce0 d43d
00000060: 2c65 99bd 3808 413b 6515 1fbc 2fcb c83c
00000070: 0b2b c9bd c66d f7bd cf31 c33d 1cf8 9bbd
00000080: 48b6 dbbd dcd0 003e 4f06 383d b77c de3c
00000090: 7d22 bfbd a2d6 56bd 81ad 75bd bb7e b13d
000000a0: 201c 9a3c 41bc ffbc 9cd0 103e e280 53bd
000000b0: cd6e 86bc a0cd 433b 84d0 acbc db9e c83b
000000c0: 57ce 8d3d ea45 c63d 2c91 e03d c49e e5bc
000000d0: 08e4 07be 7280 6ebb ba86 24bd 8dee a23d
000000e0: 28c8 083e a9a6 85bd 298d efbd d9f4 94bd
000000f0: 475a 10bd eb42 efbc 1ebb d2bd 31ce 11be
00000100: 1475 c33d 44e9 5f3d 715c 5f3c 7418 2abd
00000110: 90f1 ddbd 4ba4 83bd 9ec6 32bd 3757 c3bd
00000120: 1394 58bc d9c3 18bb cb2d fb3d 48f9 f4bb
00000130: 9a6a 48bd c8ea 0f3d c1a8 0d3e 4b45 883d
00000140: e5e2 fbbd 30e5 f93b 19f3 a83d 7a66 73bd
00000150: 6aa4 643d adec 8a3d 3daf 723c 4025 93bd
00000160: 598c bcbd 2308 55bd 6760 38bd f01e 02bc
00000170: af23 113d 3204 1fbc 65b5 1fbe 3145 c2ba
00000180: 0513 96bd 7dd4 ab3d e030 ba3c aa62 803d
00000190: ed51 c5bd 5d0e adbd d9e0 903d ff0d 13bd
000001a0: feb6 0abe bd95 cabd 7779 8abd fb2c 5bbd
000001b0: 4f62 96bd bd67 e13c 5ccf 593d 19f1 3a3c
000001c0: 2d37 c0bd 4b76 e63c 6565 c3bd cc47 d83c
000001d0: c57d 7fbd 0612 493d 3c55 34bc 69a9 583d
000001e0: 2a47 0dbe 18e6 eb3d 2ced 0ebe ddcc 393d
000001f0: 583e ccbd 09da 6b3d 7803 f23c c201 713d
00000200: 9e7e 4e3b d86d a43d 60a8 0abe 2d91 11bd
00000210: ee48 19bc 0ca0 48bd 3359 46bd a053 b2bd
00000220: b10a e43d 86a9 c3bd c86d 2f3e 8f8e a33d
00000230: 7a40 6f3d 1497 c3bb 5879 4abd 7850 c03d
00000240: 443c 963d d0b7 ddbd 8637 81bd f74d ed3d
00000250: 7714 063e 8f51 1d3d 37f8 483d 91d5 91bc
00000260: 05b1 cabd 639f 903d 42d3 ce3c e7f0 bcbd
00000270: fb81 a2bd 98dc a73d 2131 e7bc d9a6 59bc
00000280: 75df 0dbe 5cf1 9abd cda6 e2bd 662a 9c3d
00000290: 9c43 e63d 1a7c 72bb 7e0d 22bd 264a e23d
000002a0: 5ed4 bebc 72e1 8ebd 2b2a efbd 734c 5d3c
000002b0: 477b 7c3d 2a77 0bbe 97f2 143e 9f05 96bd
000002c0: 720b acbd c8c1 3ebc 308b f93d 8484 1fbe
000002d0: c2f9 14be ae11 f3bd 01b8 85bb 9ba1 a03c
000002e0: 1313 0e3e 93ad c73d 167b f4bc 4a46 4a3d
000002f0: 1660 b8bc a049 3c3e d756 cbbd ea6d 0f3d
00000300: 1306 eabd 8af6 9b3d 5301 91ba f01e 4fbd
00000310: 3aec cc3c 1454 343d 0fbe 26bd 8207 853e
00000320: baff 74bd 0391 17be fc20 1d3d cb92 3c3d
00000330: 4482 b83d 8ab8 c53d 2944 1cbd 198f bb3d
00000340: 2b31 1c3e db91 b43c 93b4 71bd 05ec c5bd
00000350: 9451 ba3d 769c cc3d 6106 b43d c6d0 0dbc
00000360: b17d 7e3d 9636 3c3e e221 b2bc 24df b33d
00000370: 1345 e3bd e529 6dbd d69f 0bbe 93ec c8bd
00000380: e96b cd3d e7d3 a13d ccd5 d03d 2c14 913c
00000390: a378 373c 8f1e 11bc 55ca 18bd 0985 833c
000003a0: bc2f 11bd eb2f 953c 3ef3 233b a292 033e
000003b0: 9d91 d7bd 8f6a e5bd 9532 eabd 8e03 11be
000003c0: 08f1 82bd 55a7 40bd bbf8 40bd 8907 353e
000003d0: 92b2 d9bc 1ef0 d23c d8fe 4a3d ed48 25bd
000003e0: 015f b23d 289e 30bd 0f7f eebc f615 963d
000003f0: 4558 f5bc de80 c43d 5e69 0abe 40ce 1b3e
0.046489425 -0.028139642 -0.07937086 -0.05680027 -0.09603593 0.12937218 -0.1117317 -0.091734536
-0.08311781 -0.017257407 -0.080540024 -0.0400932 -0.051563602 -0.11511066 0.06631252 0.119449675
-0.015821762 0.107621655 0.05535186 0.1152213 -0.0038950767 0.026102185 0.025719048 0.10394332
-0.0749 0.0029454362 -0.009709691 0.024510948 -0.09822663 -0.120814845 0.095309846 -0.076156825
-0.10728127 0.12579674 0.04492789 0.027159078 -0.0933275 -0.052450784 -0.05997992 0.0866675
0.01881224 -0.031217696 0.14142078 -0.051636584 -0.016410256 0.00298772 -0.021095522 0.0061224527
0.06924122 0.09681304 0.10965189 -0.028029807 -0.13270581 -0.0036392477 -0.040167548 0.07955656
0.13357604 -0.065259285 -0.11696846 -0.072732635 -0.035242345 -0.029206714 -0.10289596 -0.14238812
0.09543815 0.05466582 0.01363288 -0.041527227 -0.1083709 -0.06427821 -0.043646447 -0.09538119
-0.013218897 -0.0023310094 0.12264594 -0.0074760057 -0.04892979 0.035136014 0.13833906 0.066538416
-0.12299136 0.007626198 0.08249492 -0.0594239 0.05582086 0.067834236 0.014812288 -0.07184839
-0.09206457 -0.052009713 -0.04501381 -0.007941946 0.03543442 -0.00970559 -0.1559654 -0.0014821646
-0.073278464 0.08390138 0.022728384 0.06268819 -0.09634767 -0.08450005 0.07074136 -0.03590202
-0.13546368 -0.098918416 -0.06761449 -0.053509694 -0.073429696 0.027515287 0.05317627 0.011410021
-0.09385524 0.028132578 -0.09540824 0.026401423 -0.062375803 0.049089454 -0.01100665 0.052895937
-0.13796678 0.11518496 -0.13957661 0.04536139 -0.099728286 0.05758098 0.02954267 0.058839567
0.0031508575 0.080287635 -0.13540792 -0.03553884 -0.009355767 -0.048980758 -0.04842491 -0.087073565
0.11134852 -0.095538184 0.17131722 0.07986175 0.0584111 -0.0059689377 -0.04943213 0.09390348
0.073357135 -0.10826075 -0.063094184 0.11587136 0.13093744 0.03840786 0.04906484 -0.017802032
-0.09897045 0.070616506 0.02524722 -0.09225636 -0.07934948 0.08196372 -0.028221669 -0.0132844085
-0.13854773 -0.07565567 -0.11066971 0.07625274 0.11243364 -0.003700024 -0.03956365 0.11049299
-0.023294624 -0.06976594 -0.11677965 0.013506996 0.061641004 -0.13619676 0.14545666 -0.07325291
-0.084006205 -0.011642881 0.12184751 -0.15577894 -0.145484 -0.118686065 -0.004080773 0.01960831
0.13874464 0.097499035 -0.029843848 0.04938344 -0.022506755 0.1838746 -0.09928673 0.03501693
-0.1142694 0.07615383 -0.0011063017 -0.050566614 0.025014985 0.044025496 -0.040708598 0.2598229
-0.059814192 -0.14801411 0.038361534 0.04603843 0.09009221 0.09654339 -0.03815094 0.09158153
0.15253131 0.022042206 -0.0590101 -0.09664158 0.09097591 0.0999078 0.08790279 -0.0086557325
0.062131587 0.18380198 -0.021744672 0.08782795 -0.11097159 -0.057901282 -0.13635191 -0.09810748
0.10030348 0.07901745 0.101970285 0.017709814 0.011198196 -0.008857383 -0.037302334 0.016054647
-0.035445914 0.018211326 0.002501681 0.12848905 -0.105258204 -0.11201965 -0.11435429 -0.14161512
-0.06393629 -0.04703458 -0.047112208 0.17678656 -0.026574407 0.025749262 0.049559444 -0.04035275
0.08709527 -0.04311958 -0.02911332 0.073284075 -0.029949317 0.09594892 -0.13516757 0.15215397

decoder.0.bias f4 [128]
00000000: fed2 76bc bf88 433d 971d a2bd 108f 07be
00000010: 3bf8 80bd 8c73 36bd b823 5bbd 8ca3 003d
00000020: 137b de3d ddb3 c93d a624 6bbd bc14 c23d
00000030: 83f8 a5bb 70cc a4bb 1cc5 83bd 1b70 9cbd
00000040: 98f1 88bc 8488 0dbd 3eb6 393c abea 003e
00000050: 9f46 f73d 0584 f33a a78a d6bd 2d5a d5bd
00000060: 7527 953d c12f debd 40d3 45bd 49b4 933d
00000070: 734e 3abd d282 42bd b6c9 baba 328a 1cbd
00000080: f2e5 ce3c a311 72bd cb52 5ebd 89e4 1bbb
00000090: f01f 023e 1a1e 843d 7b0a 193d 43e1 153e
000000a0: f7b6 a03c 3ded a7bc 68c2 cfbb f976 293c
000000b0: 0f0d 74bc 4606 153e 1719 9abd 5333 dbbd
000000c0: b467 e83d 58db 7e3d e2f2 aa3c 288f bc3c
000000d0: 37cd 043e 88d4 84bd be14 54bc 3858 b4bd
000000e0: e4da f0bc de7d 9c3d f326 e1bd 2059 1f3d
000000f0: 1e2f 83bd 0c6f df3d 3c87 d13c 63be fa3d
00000100: 09be e8bd 782c 8fbd 02b3 a4bd 5e85 d4bd
00000110: 6df9 88bd 0d63 09bc 726c e93d 0198 823d
00000120: d2f8 d8bc 4364 debd 6ad3 593d e6f0 09bd
00000130: ce0a c8bc 7bac f5bd 075f 4dbc 93af 6ebc
00000140: b0f8 f0bd 24c8 933d 1be4 2d3d cba8 20bd
00000150: 41ff d13c e5f8 b7bd 0f6b dabd cbed eabd
00000160: 99ee a6bd ebb3 18be 93e4 f23c 433d af3d
00000170: 03df 293e 916a 7abd 9549 babd 1ab4 553d
00000180: 9870 31bd 4e9d ccbd bd43 84bd 091d acbd
00000190: 76b7 853d 01de 9b3d d2ba 813d c7ff 073c
000001a0: beff 63bc 2fa8 fd3d 9c2a d9bd 7f16 87bc
000001b0: cc93 b23c bac5 cfbd 14c7 5d3c 84bc 8f3d
000001c0: 8105 eb3d 45f8 d33d cb9e a4bd dc39 a73d
000001d0: 83f3 063d a8cc 3b3c acd6 dd3d bc7e 823d
000001e0: e98e 003d 8835 b73c 66e2 02be 3f4a 4a3d
000001f0: 318b a93d 3628 403d 6955 973d e7a0 04be
-0.015064953 0.047737833 -0.079158 -0.13238168 -0.06297346 -0.044543788 -0.05350086 0.03140597
0.10863318 0.09848759 -0.057407998 0.09476611 -0.0050650253 -0.0050292537 -0.0643408 -0.0763857
-0.016716763 -0.03455402 0.011334954 0.12589519 0.12074017 0.0018578774 -0.104756646 -0.1041759
0.072829165 -0.10848952 -0.048297167 0.07212121 -0.04548497 -0.04748804 -0.0014250788 -0.03821773
0.02525613 -0.05909885 -0.054278176 -0.002378734 0.12707496 0.06451054 0.03736351 0.14636712
0.019618494 -0.020498866 -0.0063403137 0.010343307 -0.014895692 0.14553174 -0.07524317 -0.10703149
0.11347905 0.0622209 0.020867769 0.023017481 0.12968908 -0.064858496 -0.012944398 -0.08805889
-0.02940125 0.07641195 -0.10993757 0.038903356 -0.06405471 0.109098524 0.02557718 0.12243345
-0.11364371 -0.069909036 -0.080419555 -0.10377 -0.06688199 -0.008385432 0.113976374 0.06376649
-0.026485834 -0.10858967 0.053180136 -0.033677004 -0.024419215 -0.11995789 -0.012534863 -0.014568227
-0.117661834 0.07215908 0.042453866 -0.039223474 0.02563441 -0.0898302 -0.10664951 -0.11471137
-0.08150978 -0.14912383 0.029650008 0.085566066 0.16588978 -0.061136786 -0.09096066 0.05217371
-0.04332027 -0.09990941 -0.064582326 -0.084039755 0.06529133 0.07610703 0.06334461 0.008300728
-0.013915954 0.12385594 -0.1060383 -0.01649022 0.02179899 -0.10145135 0.013536233 0.070183784
0.11475659 0.10350088 -0.080381 0.08165333 0.032947075 0.011462368 0.10831961 0.06371829
0.03138629 0.022364393 -0.12781677 0.049387213 0.08278502 0.04691335 0.073893376 -0.12952004

decoder.2.weight f4 [256, 128]
00000000: b8ce 383a 7799 79bd 9c5d 2a3d 4302 703d
00000010: 0eb3 403d a322 ab3c 5a72 adbd 85e9 d2bb
00000020: 1954 6f3d e7a4 823d d449 483d 3231 543d
00000030: 7020 abbd 8d7d dcbd 8679 f8bd 8e65 293b
00000040: 6671 6cbd f6e4 cf3d bdee bf3d cb83 083d
00000050: 5158 d7bd a5bd 573c 7a92 57bc 6551 c63d
00000060: c634 683d 9cf9 c6bd 3333 823b 567d 263d
00000070: d24b ddbc 21b8 543e 89a7 cfbb e97d da3d
00000080: 2be9 4e3d 8532 b9bb 49aa 883b 3214 393d
00000090: 4d3a 383d 2953 12bd 8f7c a03c ba6c d8bd
000000a0: 4cf7 e63c 46f8 b8bd 40fa f9bc 0b83 8a3d
000000b0: 6b6d 583d 62a9 d43c 46c7 dcbd 43bc 903c
000000c0: 9d83 33bd a09e bf3c a89b 16bd 9c2b 633d
000000d0: 3f0a 05bd ad69 8dbd 0ac1 ee3d fcbc 273c
000000e0: fc54 bd3d 1daf 8a3c 419f a13c cf51 9837
000000f0: e386 c83d 144b 06bd f554 e23d 141d 023d
00000100: c00c c3bd 642f c23b eb45 7bbc 39a3 963d
00000110: 0a60 983d 1e1f ca3d 57fa 12bc ed69 dbbc
00000120: 8469 223d ebaa 5c3d d141 503d 7776 bd3d
00000130: f071 653d 3126 4a3d f351 a9bd 5185 813d
00000140: 0f2b 993d d24a 293d 1bf6 a53d c353 da3c
00000150: 0c05 e7bc 53a9 e4bd a0bd 38bd 2fdd 42bc
00000160: fb1f f03c e0a0 cbbd 1625 07bd 555f b8bc
00000170: 86d7 14bd a81b 8ebd 5917 24bd c664 c8bc
00000180: a2f7 733d cafd ad3d 4891 243d 7d58 223b
00000190: b5d1 b53c 1794 2cba 97ba 453d 2095 a93c
000001a0: 6aa7 7fbd 942d bfbd e2df aa3d c317 bebb
000001b0: 9414 043d b065 4c3b f2a4 f6bd 9687 8ebd
000001c0: ea7a fcbd 7cd5 0abd 94a4 dc3d 4498 813d
000001d0: c613 443d 7781 223e 5fb7 a63d 6563 71bd
000001e0: 70ff 663c e3fc 9abd b744 2d3d 951c 49bd
000001f0: b486 92bd db5e 50bd 1cc2 54bd ebc7 82bd
00000200: 80bb 9dbd 5d01 5c3d fbc5 703d 1b66 2c3d
00000210: ad52 a43c c41e 293d 73df bfbc c67e ae3d
00000220: 39f9 653d 2742 823c 6621 0f3d 3d81 083d
00000230: 1e71 923d 2d19 163e d39b d43c 1e72 503d
00000240: cd56 0d3d eb7e a83d 2887 85bd d164 9cbd
00000250: ee8c d53d 6c79 44bb 5475 7bbd 6229 2b3d
00000260: fdf1 dcbd 5125 83bd 28fd ab3d 8de7 523d
00000270: e6e8 f7bd 9737 19be ac55 4f3d b0ad f03d
00000280: c422 c43a 4962 c6bc f089 11bd d77a 993c
00000290: 3cd5 f63b f4fd cd3c 30a1 dcbc f74b 103e
000002a0: b155 783d 35e7 d3bd 1a13 60bd 4ae4 b83d
000002b0: 269b a7bd e189 923c 9644 66bd 6d73 a23d
000002c0: f465 01bd 4161 c53c 40d8 233d 2979 843a
000002d0: 9571 9c3a fbcb 82bd 64c6 a1bd 7188 80bd
000002e0: 6ede e3bc 5d16 7a3d a292 8ebb 0207 203d
000002f0: 0e64 03be 2dd3 b4bc fb9a 183e bbbb aabc
00000300: 374a 183c 480e 983d 15c6 4a3d 0bef 2f3c
00000310: 5fd0 523d a4dd 9dbd 7460 ca3c de03 643d
00000320: de7e b7bd ecd0 7a3c 12f7 92bd cc12 3c3d
00000330: 4c7d 033b 7677 293d be38 9f3c 3067 a73d
00000340: 40ed 413d 55a5 bdbc 06d4 c33b 657c bc3d
00000350: e480 06bd eaed 133d abda 713c f1d4 a53d
00000360: 2bf9 9ebc f955 d93c a3d2 b23d 2d26 f53b
00000370: d8a4 96bd 01db 7abc 99a6 5dbd 0a94 a63d
00000380: 55bb a9bd 1f41 92bd 7ebc 56bd 9f30 80bd
00000390: 36fb 7d3d e0cf a53d 3ea5 24bd 61c6 ca3d
000003a0: cb72 21bd 3514 e4bb 5b99 9dbd e893 18bc
000003b0: bbe1 96bd dead 9b3d 74f0 fa3c 6cba 5ebc
000003c0: 218a 3cbd 9c11 b5bc 0e0d 39bd bd58 7239
000003d0: ec84 83bc 3d83 97bd 81bc 6ebd 4e90 61bd
000003e0: 224c aa3d 7ce9 28bd 6e68 f13b c78f 25bd
000003f0: 22c5 2b3c cf27 1fbd ba22 0f3d 8189 623d
0.00070498465 -0.06093737 0.04159318 0.058595907 0.04704576 0.02089054 -0.084690765 -0.006436529
0.05842981 0.06379109 0.048898533 0.05180473 -0.08355796 -0.107661344 -0.12132554 0.0025847885
-0.057725333 0.10151093 0.093717076 0.033328813 -0.10514892 0.013167773 -0.013157481 0.096834935
0.056690954 -0.09715578 0.0039733886 0.040646873 -0.027013693 0.20773365 -0.0063371104 0.10668547
0.050515335 -0.0056517744 0.00417069 0.045185275 0.044977475 -0.03572384 0.019590644 -0.10567613
0.028194092 -0.090317294 -0.030514836 0.06763276 0.052838724 0.025959674 -0.10780196 0.017667895
-0.043826688 0.023391068 -0.03676954 0.05546151 -0.032480475 -0.06904922 0.11657913 0.0102379285
0.09244725 0.016929204 0.019729258 1.8157907e-05 0.097913526 -0.032786444 0.110513605 0.031766012
-0.09523916 0.0059260596 -0.015336494 0.07355351 0.07440193 0.098692164 -0.0089708185 -0.026783908
0.03965141 0.053873938 0.050844017 0.09251111 0.056016862 0.04935283 -0.08267584 0.06324256
0.07478916 0.04133112 0.081035815 0.026651269 -0.028200649 -0.111651085 -0.045102715 -0.011893555
0.029312124 -0.09942794 -0.032994352 -0.022506395 -0.03633835 -0.06938869 -0.04006133 -0.024462115
0.059562333 0.08495672 0.040177613 0.0024771981 0.022194723 -0.00065833464 0.04827365 0.020700991
-0.062415518 -0.09334865 0.083434835 -0.0058011725 0.032246187 0.003118854 -0.120431796 -0.06959455
-0.123281315 -0.033895 0.10773578 0.063278705 0.04787042 0.158697 0.08140444 -0.05893268
0.014098987 -0.075677656 0.04230186 -0.049099524 -0.07154599 -0.05087171 -0.05194293 -0.063857876
-0.077017784 0.053712238 0.05878256 0.042089563 0.020058954 0.041289106 -0.023421979 0.08520274
0.05614588 0.015900685 0.03494396 0.033326376 0.07150482 0.14658041 0.025953209 0.05089008
0.034506608 0.08227333 -0.0651992 -0.07636417 0.10427271 -0.00299796 -0.06139119 0.041787513
-0.10788343 -0.06403602 0.08397895 0.051490355 -0.12104969 -0.14962612 0.050618812 0.11751878
0.0014963974 -0.024216788 -0.035531938 0.018735332 0.0075327437 0.025145508 -0.026932329 0.14091478
0.060628597 -0.103468336 -0.054705717 0.09027918 -0.08183889 0.017888011 -0.056217752 0.07932172
-0.03159137 0.024094226 0.040001154 0.0010106909 0.0011935706 -0.063865624 -0.07899168 -0.06276024
-0.027816024 0.061056484 -0.004350976 0.039069183 -0.12831137 -0.022073353 0.1490287 -0.02084147
0.009295038 0.07424599 0.049505312 0.010738145 0.05146825 -0.0770829 0.024704196 0.05566775
-0.08959745 0.0153086 -0.07176031 0.045916364 0.0020063696 0.041373692 0.019436236 0.08173978
0.0473454 -0.023150126 0.005976203 0.09203414 -0.032837763 0.036115564 0.014761607 0.08097256
-0.019405922 0.026530253 0.08731582 0.0074813575 -0.0735566 -0.015311004 -0.054113958 0.08133705
-0.08287684 -0.07141327 -0.052425854 -0.06259274 0.06200715 0.0809629 -0.04019665 0.09901119
-0.039416116 -0.0069604167 -0.07695266 -0.009312607 -0.073672734 0.07601522 0.030632235 -0.013594251
-0.046030167 -0.022103123 -0.045178466 0.00023111976 -0.016054593 -0.073980786 -0.05828524 -0.05506926
0.083153024 -0.041238293 0.0073671853 -0.04042032 0.010484012 -0.038856324 0.034945227 0.055306915
