ae.pth (torch, 503202 bytes, 12 tensors)

encoder.0.weight f4 [128, 100]
000000 79 35 75 bd 6a 6c 54 bd fd af 22 3c 3e 56 b7 bb
       -0.05986545 -0.051861204 0.009929654 -0.0055949977
000010 29 d0 4d 3d 9a 13 d4 bb 66 06 6d bd 8d 38 a7 bd
       0.050247345 -0.0064720633 -0.05786743 -0.08165083
000020 08 14 6c 3d 9a 0c ff bc f6 83 ce 3d 36 fb cf 3d
       0.05763629 -0.031133939 0.10083763 0.101553366
000030 0d c8 e2 bc fc 9d bc 3d f7 d4 92 bd 3d c2 38 bd
       -0.027683282 0.09209821 -0.07169526 -0.045107115
000040 c3 72 b3 3c 89 fa 85 bd 22 da 04 3d ab 10 af bc
       0.021905309 -0.065419264 0.03243459 -0.021370253
000050 b4 f1 dc bd 34 b6 76 bd cd 99 97 bc 5c f6 06 bd
       -0.10788289 -0.060232356 -0.018505955 -0.03294979
000060 86 82 e2 bd 80 b6 85 bd e4 bf 85 bc 23 fa bb bd
       -0.110600516 -0.0652895 -0.016326852 -0.09178569
000070 76 a8 b1 bd 4f 55 bb 3d 5f e3 96 3d c2 cb 18 3d
       -0.086747095 0.09147131 0.07367586 0.037303694
000080 0e e3 90 3d e5 d7 04 3d aa fb 91 bd 42 1a c7 bc
       0.07074557 0.032432456 -0.07128079 -0.024304513
000090 9f 2a 2d 3d f3 b3 9d bd 06 4b c1 3b f1 8a 30 bd
       0.042276975 -0.07700338 0.005898836 -0.043101255
0000a0 b0 81 8c bd 09 4b 00 3d 0e cd 78 3d 97 f9 2f 3d
       -0.068606734 0.03132156 0.06074243 0.042962637
0000b0 ce b5 b6 3d 31 8a 4f 3c f6 ad 39 bd 78 b6 c0 bd
       0.08921395 0.012667225 -0.045331918 -0.09409803
0000c0 7c fd 87 bc e8 2c 5a 3c a3 cb 9d 3d 64 8d c4 3c
       -0.016600363 0.013316371 0.07704856 0.023993202
0000d0 15 1f 83 bc ab 30 56 3d e1 89 4e 3d b9 6c bd 3d
       -0.016006032 0.052292507 0.05042446 0.09249253
0000e0 46 8a 49 bd dd 17 f3 3d a0 c9 1e bd 4c 9d 7c bd
       -0.049204133 0.11869786 -0.038766503 -0.061673447
0000f0 5d 1b 58 38 82 0d 38 3b 88 71 c1 bd 08 64 c0 bd
       5.1523897e-05 0.0028084223 -0.094454825 -0.093940794
000100 39 ce 04 bd c2 e2 5c 3d 11 1f 88 3d 9c bf fd 3d
       -0.03242323 0.05392719 0.066465504 0.12390062
000110 4f dc e4 3d 89 43 b2 bc 89 28 53 bb 93 93 06 3d
       0.11174833 -0.021760719 -0.0032220206 0.03285558
000120 af b8 16 bd 02 88 db 3d 21 58 75 3d 8f 76 89 bd
       -0.03679722 0.10719301 0.0598985 -0.067120664
000130 94 f3 bf 39 16 af 89 bd 79 58 26 3d 4b fd 9e 3d
       0.0003661184 -0.06722848 0.040611718 0.077631555
000140 c6 2e 1c bd 37 82 b1 bd 56 1f 7e bc 3b 42 c8 bd
       -0.038130544 -0.08667415 -0.015510401 -0.097782575
000150 bb 0b 6c 3d 3b 00 b3 3b 88 36 ad 3b f3 42 0b be
       0.057628375 0.005462674 0.0052860416 -0.13599758
000160 79 34 c2 bd b7 3e bb bb e5 28 df bd a5 51 c7 bc
       -0.094826646 -0.0057142633 -0.10896472 -0.024330923
000170 51 b0 3b bd 60 a4 a6 bd 1b fe b4 3d 66 a3 d1 3d
       -0.045822445 -0.08136821 0.08837529 0.10236244
000180 b0 be 8a 3b f8 78 fc bc a6 5e 1f bd 9d cf e3 3c
       0.0042341575 -0.030819401 -0.038908623 0.027808959
000190 e8 93 b9 3d 2f 52 94 bd 95 b4 a6 bd 15 97 b3 3c
       0.09061414 -0.07242238 -0.08139912 0.021922627
0001a0 4c 76 38 3d 49 9b 07 3d c0 b4 c7 3c e3 be e8 bc
       0.04503469 0.033107076 0.02437818 -0.028411334
0001b0 d6 b3 8a 3d 78 08 7c bc 12 0d 0d ba a7 bc 71 bc
       0.06772582 -0.0153828785 -0.0005380671 -0.014754451
0001c0 87 9b 30 bd 1c 87 09 3d b2 ea e3 3b 4d 42 c1 bd
       -0.043117072 0.033576116 0.006955468 -0.09436474
0001d0 8e 8a 10 3d 00 7a 9d 3c 80 c9 8a bd 1d 69 09 3c
       0.035288386 0.019223213 -0.06776714 0.008386877
0001e0 16 89 b0 bd d2 d8 b4 bd 40 f1 11 3d 62 71 27 bc
       -0.08619897 -0.08830418 0.035630465 -0.010219904
0001f0 02 c0 a8 bd 45 3c bb bd 4a 75 14 bd f5 f5 52 3d
       -0.082397476 -0.09142355 -0.036244668 0.051504094
000200 c0 10 3f 3c 78 86 a4 3d 79 e2 18 bd 43 6e 1b bc
       0.011661708 0.080334604 -0.037325356 -0.009486738
000210 ae d0 3b bd c6 32 a6 3d 15 1e e8 3d cd e8 9a 3d
       -0.04585331 0.08115153 0.11333863 0.075639345
000220 f6 f3 a6 bc 5a 55 74 3d 5a 2d 76 bd c7 17 c8 3c
       -0.020380002 0.05965171 -0.060101844 0.0244254
000230 2f 69 dd bc fc 7d b5 3c fc 85 e4 3d df 32 1a bd
       -0.027027695 0.0221548 0.11158368 -0.03764617
000240 67 ab d5 3d ff c7 85 bd dd ca c5 3d 15 ff 11 3d
       0.10433083 -0.06532287 0.09657834 0.035643656
000250 87 a1 b9 3d 64 bb 1b 3c f0 90 f2 bc a7 8c 32 bd
       0.09064012 0.009505127 -0.029610127 -0.043591168
000260 cf 73 a4 3b 87 32 1f 3d a4 d4 b2 bd ea a6 02 3d
       0.0050186883 0.038866546 -0.08731964 0.031897463
000270 a2 cc 93 bd 73 5e e3 3c 11 b5 fd 3c 39 7c 0b bd
       -0.07216765 0.027754998 0.030970128 -0.034054015
000280 69 27 b6 bd 15 09 e3 bd 2b 69 92 bd 9c fe 69 bd
       -0.08894236 -0.11085717 -0.071489654 -0.05712758
000290 65 d4 2f bd b7 cf d7 bd 6c 3d 07 be cf 31 55 bd
       -0.042927165 -0.10537665 -0.13207024 -0.052049454
0002a0 69 f0 58 3d 18 b3 da bb 52 cd 69 3d 57 04 10 3d
       0.052963648 -0.0066741817 0.057080574 0.03516039
0002b0 d6 56 e0 bd 46 17 78 bd 30 23 cf bd 14 c0 4e bd
       -0.10954063 -0.06056907 -0.10114133 -0.05047615
0002c0 13 13 6f bd c9 78 fb bc 22 02 65 3b 1d 10 af 3d
       -0.0583678 -0.030697243 0.0034943898 0.08547995
0002d0 6c fa bc 3d b3 ef 53 3c df c3 b8 3c 43 74 30 3d
       0.09227452 0.012935567 0.022554336 0.043079626
0002e0 6f 96 fa 3c 3a 6f b4 3d 9b 19 a6 3d 08 57 84 3a
       0.03058931 0.08810277 0.081103526 0.0010096738
0002f0 99 65 a3 3d 06 27 5c bd 50 8f 41 3d b3 b1 57 3d
       0.079783626 -0.053748153 0.047255814 0.0526597
000300 a0 3c b4 3d ab e6 88 bb fc 64 cf 3c a4 8d 92 3d
       0.08800626 -0.0041778884 0.025316708 0.07155922
000310 43 01 bb bb f2 59 49 bc fe bf 88 3d dc e2 92 bd
       -0.0057069375 -0.012289511 0.066772446 -0.07172176
000320 12 e3 82 bd fa 10 cd 3d 85 d1 00 3d fe 07 c7 3c
       -0.063909665 0.10013004 0.031449813 0.024295803
000330 ec 29 f3 bc 5c 73 05 3e 44 c0 63 bb 27 a1 0b bd
       -0.029683076 0.13032287 -0.003475205 -0.034089234
000340 ab bd 24 bd d3 22 a6 3d fc 4f 24 bd 65 1d 44 3d
       -0.040219944 0.08112111 -0.04011534 0.047879595
000350 1d dc a4 bd f4 a1 82 3d 49 b3 b5 bd 4e 85 26 3d
       -0.08049796 0.06378546 -0.088720866 0.040654473
000360 9f a8 2b bd 23 72 a8 3c 66 fc fc bd 0d a5 64 3d
       -0.041908856 0.020562237 -0.12352829 0.055821467
000370 f3 60 38 3b 7a 42 e6 bc f8 ea d8 bd 53 d5 82 3c
       0.0028133958 -0.02810787 -0.10591692 0.015970862
000380 5a 3f 7e bc 2a cc 9e 3c 54 d1 80 3d cb 1f 9e 3d
       -0.015518034 0.019384462 0.06289926 0.07720908
000390 4a 5c 8d bc 35 b5 be 3d d4 e7 aa bd e7 c7 4a bd
       -0.01725592 0.09311906 -0.08344999 -0.049507048
0003a0 df 7b 39 bd 2d c5 1f 3d 78 20 6a 3d 96 e6 50 bd
       -0.04528415 0.0390064 0.05715987 -0.051001154
0003b0 cb df 87 bc 95 e5 40 bd 28 1d b7 bc 87 0e 6c 3d
       -0.016586205 -0.047093946 -0.02235277 0.05763104
0003c0 36 f3 75 bd 1a 77 0e bd 3a a0 9d bd 31 2a 06 bd
       -0.060046397 -0.034781553 -0.076965764 -0.03275508
0003d0 31 30 8c 3c aa 64 c8 3d 86 67 52 3d b8 f1 3b 3d
       0.017112823 0.09784825 0.05136826 0.045884818
0003e0 8e 87 02 3e 8e b7 9a 3d 64 23 07 3d 5a cb 05 3d
       0.12747023 0.075545415 0.032992736 0.032664634
0003f0 7b f1 8d bb 49 9b 8d bd a0 d7 df 3b f8 cb 70 3d
       -0.004331765 -0.06914384 0.0068311244 0.05878827

encoder.0.bias f4 [128]
000000 fc 0e bf 3d 84 c3 b3 bd c7 3b 89 3d 22 aa c4 bd
       0.0932903 -0.08777526 0.06700855 -0.09602763
000010 00 e6 92 3b 1c 14 9e 3c 5a 84 7e 3c dc 14 1a bd
       0.0044829845 0.019296698 0.015534485 -0.03761755
000020 ba 3e 10 bd 7c 40 44 bd 33 dd 66 3d 78 e1 2b bc
       -0.03521607 -0.04791306 0.056363296 -0.010490768
000030 21 41 54 3d 5e 2d 1b bd 96 77 7a bd b9 31 87 bd
       0.051819924 -0.037885062 -0.061149202 -0.06601281
000040 5a b2 0b bd 86 25 8a bd df 67 41 bd 45 07 a2 bd
       -0.034105636 -0.06745438 -0.0472182 -0.07911543
000050 17 7d f1 3c e1 47 e8 b9 77 ef 11 3d 37 fa 82 bc
       0.029478593 -0.00044304042 0.035628762 -0.015988452
000060 41 c1 0c bd 43 36 07 3d e4 79 79 bd cd 3b cd bd
       -0.03436399 0.033010732 -0.06090726 -0.10021172
000070 ba 3a 4e 3d 1f 1c 0d bc be 8b 0f 3d 8a 41 4b 3d
       0.050348975 -0.008612662 0.035045378 0.04962305
000080 27 ec 9c bb 96 8c 13 3d ca 5e fa bc 26 aa b8 3c
       -0.0047888937 0.036022745 -0.030562777 0.02254207
000090 03 28 cf 3d ba 61 8a bc 28 dd ba 3d 34 49 03 3d
       0.101150535 -0.016892303 0.091242135 0.032052234
0000a0 49 25 3b bd 52 66 43 3c 4e 3d b8 bb 44 10 aa ba
       -0.045689855 0.0119262505 -0.0056225425 -0.0012974818
0000b0 f3 90 0f bd b2 cc 06 bd d2 23 b1 3c 68 ab 3d 3d
       -0.035050344 -0.032910056 0.021623526 0.046306044
0000c0 ee 69 50 bc c2 65 3b 3c 8e 11 98 3d 0f 3c 8a bd
       -0.012720568 0.011437835 0.07425223 -0.067497365
0000d0 31 72 da 3d 01 d2 eb 3c d8 56 e2 bd 3c 51 46 bd
       0.106663115 0.028786661 -0.110517204 -0.048417315
0000e0 17 10 4d 3c e9 cf 09 bd c2 52 45 bc 51 cf bc bd
       0.012516043 -0.033645544 -0.012043657 -0.0921923
0000f0 2f 94 d9 3c 56 22 a8 bd 70 3f a5 bd 95 a9 ae bc
       0.026559917 -0.08209674 -0.0806874 -0.021321097
000100 e6 8b b4 bb 11 05 8e bd 8d 50 7e 3d 4c e3 b0 3d
       -0.0055098413 -0.0693456 0.062088538 0.086371034
000110 24 ca 70 bd cc 3b 8b bd a6 fc 4d 3d dc da b3 3d
       -0.058786526 -0.06798515 0.050289772 0.087819785
000120 c0 82 57 3d 26 9a 99 bd b5 1a b8 3d 63 50 a5 3d
       0.052614927 -0.075001046 0.08989469 0.08071973
000130 92 d4 02 3e ff 80 7c bc 6d f8 12 bd 1c 0b d7 3c
       0.12776402 -0.015411614 -0.03588145 0.026250415
000140 e5 25 80 bd 61 74 b5 bd 7e 98 1d bd e5 77 8c bd
       -0.06257228 -0.08860088 -0.038475506 -0.068588056
000150 23 50 d0 3d 1e c8 b5 3d db e1 87 bd e7 99 cd 3d
       0.10171535 0.0887606 -0.066348754 0.1003912
000160 14 32 95 3d db 4e da 3c 4b 28 d5 3a 05 3e ba 3d
       0.07284942 0.02664893 0.0016262619 0.090938605
000170 7a c1 e2 bc fc d5 66 3d 50 bd ab 3d 46 65 bd 3d
       -0.027680147 0.056356415 0.08385718 0.09247832
000180 9c 49 e2 3d e7 da b2 bb b3 25 18 bd 61 8b a4 bb
       0.11049196 -0.005458224 -0.037145328 -0.005021498
000190 97 8e 34 3c 87 41 4a 3d 7b 13 4e 3d fa 05 cc bc
       0.011020324 0.049378898 0.050311547 -0.024905194
0001a0 fe d8 61 bd ed 36 e9 bc e8 82 6f 3d 76 75 48 3d
       -0.05513858 -0.028468573 0.05847445 0.048940144
0001b0 af db 44 bd cd 0e 3f 3d 11 67 ac bd df f0 cd 3d
       -0.04806107 0.046644974 -0.08418096 0.10055708
0001c0 6d 4e d8 3d 9f 02 be 3d 9f ce 7b 3d 95 32 e0 3d
       0.105618335 0.09277844 0.061476346 0.10947148
0001d0 a0 6d 24 3d 4a 9e 85 3d 50 4d ac 3d e2 49 70 bd
       0.04014361 0.06524332 0.08413184 -0.05866421
0001e0 52 18 30 bd 71 b3 62 bc 75 ae a6 3d 52 e8 21 3d
       -0.042991944 -0.0138367275 0.08138744 0.0395282
0001f0 bd e1 4e 3d c7 30 d7 bb 18 46 ae bd 2d ec 96 3d
       0.05050825 -0.006567094 -0.08509463 0.07369266

encoder.2.weight f4 [256, 128]
000000 e3 89 5e 3d 7c e4 4a 3d f9 fe f9 3c 05 23 9c bd
       0.054330718 0.049534306 0.030517088 -0.07623867
000010 b8 b6 b2 3d 7b 53 22 bd 19 f2 9a 3d 7e c1 b4 3c
       0.08726257 -0.039630394 0.07565708 0.02206492
000020 dc fd 79 3c e9 4f ef 3c 12 a5 ae bc 5b f5 b9 3b
       0.015258279 0.029212909 -0.021318946 0.0056750006
000030 6c 47 5a bd 04 c7 3b 3c 76 4c a1 3c 15 25 d0 3c
       -0.05329077 0.011461023 0.01968978 0.025408307
000040 8c 6f d2 bd 25 1e 34 3d cb 09 2a 3d 54 05 8f bd
       -0.10275182 0.04397406 0.041513246 -0.06983438
000050 fe 80 17 bd 93 f4 a0 bc ce d1 c0 3c c4 19 57 3d
       -0.03698825 -0.019647872 0.023537543 0.052514806
000060 bc 30 ed 3d d8 44 51 bd 02 20 5d 3d 7f e4 13 bd
       0.11581561 -0.051091045 0.053985603 -0.036106583
000070 e0 8c 99 3c 0a 06 57 bd b2 db de 3d f1 86 21 3c
       0.018743932 -0.052495994 0.10881747 0.009858833
000080 a9 af d6 3d 1e e2 ac 3b 50 16 8c 3d 6e 27 79 bb
       0.10482723 0.0052759787 0.06840193 -0.0038017887
000090 40 9e f7 3d 85 d8 7d 3d 0b 87 06 bd 4a ab bc 3d
       0.12090731 0.061974067 -0.03284363 0.09212358
0000a0 9e 69 9b 3d 17 e7 19 3d 41 99 f1 bd 11 96 69 3d
       0.07588504 0.0375739 -0.11796809 0.05702788
0000b0 eb f0 5c 3d 9f a1 4a 3d b0 61 37 3d df eb d3 3d
       0.053940695 0.04947054 0.044770896 0.10347723
0000c0 0f c8 91 bd 9a 13 04 bd b4 26 9f bd 15 8c 6a 3d
       -0.07118236 -0.032245256 -0.07771054 0.0572625
0000d0 ef ae d6 3d 48 71 20 bb 7f b7 4c 3d 55 2b db 3d
       0.10482585 -0.0024481583 0.049979683 0.10701624
0000e0 44 60 6e 3c 4d 6d 4f 3d d3 b8 e5 3d 15 60 3d 3d
       0.014549319 0.050641347 0.11216893 0.04623421
0000f0 40 dc 0d 3d 29 73 54 3d 62 f8 62 bd 1b a8 a5 3d
       0.034633875 0.051867638 -0.055412658 0.08088704
000100 2d 37 9e 3c 1e f0 72 bd db 25 7f 3d 03 62 51 3d
       0.01931342 -0.059311025 0.06229196 0.051118862
000110 57 32 15 bc a9 e5 90 bd 30 e2 4a 3d 6a 70 38 bd
       -0.00910624 -0.07075054 0.049532115 -0.04502908
000120 ec bb 5f 3c 57 3d 53 3c 85 1a 3b 3d 2d 61 5a 3d
       0.013655644 0.0128930425 0.045679588 0.05331533
000130 fd 7a 10 be fc 90 99 bd 86 08 e1 bd 6b 3c f3 bc
       -0.14109416 -0.07498357 -0.10987954 -0.029691895
000140 05 b4 e5 3c 15 9f 05 3e 68 8b b5 bc a0 8f 27 3d
       0.028039942 0.13048966 -0.0221612 0.040908456
000150 77 0b b3 bc 8d 48 ce bc 55 5e 81 3d bd d9 42 3d
       -0.021856053 -0.02518108 0.063168205 0.047570933
000160 d9 f8 65 bb 66 1e d1 3d d1 e2 39 bc ff f2 d3 bc
       -0.0035090952 0.10210876 -0.011345581 -0.025872706
000170 46 a0 88 bd ca 5c 6b bd ec f1 44 bc a6 be 0d 3e
       -0.06671195 -0.057461537 -0.012020569 0.13842258
000180 ac 49 d9 3c a2 f9 be bc e8 76 bd 3d 5d 3e 39 bb
       0.026524387 -0.023312394 0.09251195 -0.0028265931
000190 e0 2b b3 3c e5 03 93 bd d2 0c 1c 3d a7 60 0c bd
       0.021871507 -0.07178477 0.038098164 -0.034271862
0001a0 89 11 7d 3c ba 2f 0a 3e 32 3e b7 ba 13 e4 a9 bc
       0.015446075 0.13494769 -0.0013980328 -0.020738637
0001b0 29 fe 7f bd 7f 35 0d 3e 1a 64 96 bc c6 c2 92 bc
       -0.062498245 0.13789938 -0.018358279 -0.01791514
0001c0 dd 7d 4f bd 01 f9 8c bd 42 dd 25 3d 1f 20 99 bc
       -0.050657142 -0.06883431 0.04049421 -0.018692074
0001d0 40 b0 cb bc 1a c7 4c bd b3 8c a0 3d a6 f5 65 3d
       -0.024864316 -0.049994566 0.07839336 0.05614247
0001e0 34 1b 85 bc 89 a5 97 bb de 94 84 bd a5 29 94 3c
       -0.016248323 -0.0046278876 -0.06473707 0.018086264
0001f0 71 ec 7d 3d 89 57 4f bc d6 af 7e 3c 39 58 cd 3b
       0.061993066 -0.012655147 0.015544852 0.0062666205
000200 ee d8 06 3c b0 28 32 bd c3 4d b7 bc 59 22 b6 3d
       0.008230431 -0.043495834 -0.022375947 0.0889327
000210 ba 5c 9d 3d 32 0d a0 3c 3e 5e 1a 3c 1d ce 9a 3c
       0.07683702 0.019537542 0.009421883 0.01889711
000220 9b 6d 54 3c a6 aa b3 bd 87 b6 19 bd a9 dc bd bd
       0.012965585 -0.08772783 -0.037527587 -0.09270603
000230 43 ec 34 bd c2 db a8 3d e6 15 05 bb 12 1f d8 bc
       -0.04417063 0.082450405 -0.0020307242 -0.026382003
000240 7e ea 97 3c 65 ca 88 bd ea 6b 9c 3d 10 6f 94 3d
       0.018544432 -0.06679229 0.076377705 0.07247746
000250 77 7d 76 3d 85 8c 9f 3c b1 9b 10 3c f3 09 4a 3d
       0.060178246 0.019476185 0.008826182 0.049325895
000260 76 9f 32 3c 8d 61 a4 bd cf c9 ec 3c 91 d0 8e 3d
       0.010902276 -0.08026419 0.028904824 0.06973375
000270 14 9f b1 bc 49 b6 bf 3d 7c aa e7 3c 24 e5 9a bd
       -0.0216823 0.0936094 0.028279535 -0.07563236
000280 35 c6 a3 bc f1 94 c2 bd 33 0d 4c 3d d4 a0 8f bc
       -0.019991973 -0.095010646 0.049817275 -0.017532744
000290 01 2b 5f bd 19 46 9c 3d c5 58 06 bd 25 1e 7c bd
       -0.05448437 0.076305576 -0.0327995 -0.061552186
0002a0 7a 25 7d bd 8a 00 c8 3d 16 c5 bb bc 2c 2b d7 3c
       -0.06180332 0.09765728 -0.022921126 0.026265703
0002b0 92 5a 50 3d 2c 18 a5 bd 87 d3 f3 3c 71 83 dd 3c
       0.050867625 -0.08061251 0.02976395 0.027040215
0002c0 f4 42 a9 3c 68 02 93 3c ee b9 40 bd 3c 86 b2 3d
       0.020661809 0.017945483 -0.047052316 0.087170094
0002d0 33 e4 1f 3d 25 b5 86 bd 85 93 14 bc 26 06 46 bc
       0.039035987 -0.06577519 -0.0090683745 -0.012086427
0002e0 f5 38 74 3d 8b 72 5f 3d 5d f8 90 bd 1c 86 9a 3d
       0.05962463 0.054552596 -0.070786215 0.075451106
0002f0 dd 78 80 3c ab 24 f3 bc 8c 7e b9 bc dc b1 6d bc
       0.015682632 -0.02968057 -0.02264335 -0.014507737
000300 e5 d3 5d 3c be 61 80 3c 55 ed 8b bd d1 da ba bb
       0.013539289 0.015671607 -0.06832377 -0.0057023545
000310 da ee dd 3c 68 78 b9 3d 4d 40 69 3d 35 61 05 bc
       0.027091432 0.09056169 0.056946088 -0.008140852
000320 1d 2c a9 3d c1 6a 1d 3d 1b 57 14 bd c9 9d 7d bd
       0.08260367 0.038431887 -0.036215883 -0.061918054
000330 cc 57 ec bc e5 f9 43 bd ab 87 18 bd 96 ee ee 3c
       -0.028850459 -0.04784574 -0.037238758 0.029166501
000340 f5 95 9c 3d fb 01 df 3d 98 55 6e 3d 1d 35 5c bd
       0.076457895 0.108890496 0.058187097 -0.05376159
000350 67 a1 a0 bd 0b e6 9c bd 74 27 6f bd f3 00 f6 bc
       -0.07843285 -0.07661065 -0.058387235 -0.03002975
000360 2a 50 67 bd 9b 6e 0a bd dd 05 e7 3b c5 94 31 bb
       -0.056472935 -0.033796888 0.0070502595 -0.002709673
000370 f8 4a 32 3d bc 46 47 3d 45 31 bd 3c 78 d8 45 3c
       0.043528527 0.048651442 0.023094783 0.012075536
000380 6c 9f 6b bd a4 d5 d6 ba 4a 75 d7 bc b1 5f 38 bd
       -0.057525083 -0.0016390574 -0.026301045 -0.045013133
000390 36 56 85 bd c5 f2 a1 3c bb 90 a7 3d a4 3f cb 3d
       -0.06510584 0.019769082 0.08181902 0.09924248
0003a0 70 ba 9b bc cb cf 6b 3d 77 ac b6 bd ff d3 93 3d
       -0.019009799 0.057571214 -0.08919614 0.072181694
0003b0 5a f4 98 3d 9a d5 51 bd 9f 0d a6 3d 30 a5 16 bd
       0.07468481 -0.051229097 0.08108067 -0.03677863
0003c0 d5 4b ed 3c 7f 8d 3f 3d 62 8a 4a bd a4 01 cf bd
       0.028966824 0.0467658 -0.04944838 -0.10107735
0003d0 7b 59 b6 3d e4 71 d3 bd 0d e5 cf bc 75 1f d0 3d
       0.08903786 -0.10324457 -0.025377775 0.1016225
0003e0 a4 6c 80 3d 52 b4 9c bc 29 73 6d bd aa bc 09 3d
       0.062707216 -0.019128952 -0.057971153 0.03362719
0003f0 a2 fe 0b 3d 99 63 8c 3d f6 68 3f 3d ca b2 81 bd
       0.034178384 0.06854934 0.046730958 -0.063329294

encoder.2.bias f4 [256]
000000 83 46 be 3d a5 cc 7c 3d 8f 0e bc bd 0a 93 76 3d
       0.09290793 0.0617186 -0.09182464 0.06019882
000010 fa 27 0e bc 77 ab 04 3c 14 8e c6 3d 3c 08 56 3d
       -0.008676523 0.008097521 0.09695068 0.052253947
000020 e3 15 32 bc c7 c3 b8 bc 47 27 20 bd de 11 3a 3c
       -0.010869476 -0.022554291 -0.039099958 0.011356799
000030 f3 30 13 3c 1c 7f 75 bd 59 20 bc 3d 56 ce cf 3d
       0.008983838 -0.059935674 0.09185857 0.10146777
000040 e2 e7 e1 bd 28 c3 63 bd 72 82 99 3d b5 8c fd 3b
       -0.11030556 -0.055606037 0.074955836 0.007737721
000050 86 17 13 bd 9a b2 16 3d 39 5c 73 bd 78 c5 c4 3c
       -0.035911106 0.03679142 -0.059414122 0.024019942
000060 bd 12 a0 3b e4 fc ef bc ba e8 6e bd a0 d0 b6 3c
       0.0048850463 -0.029295392 -0.058327414 0.022316277
000070 5e d0 25 3d 57 cc 14 bd 38 a7 03 bd 14 a8 24 37
       0.040481918 -0.036327686 -0.032141894 9.8142955e-06
000080 67 7b 35 bd b4 c7 00 bd c4 7e 93 3d 48 32 5d bd
       -0.04430714 -0.03144045 0.07201913 -0.05400303
000090 5e e8 19 bc b9 ff 63 3d d3 d4 ec bc b4 3f be 3d
       -0.00939378 0.055663798 -0.028910076 0.09289494
0000a0 21 6a cb bd ad d1 bb 3d 11 33 90 3d fe 61 37 bd
       -0.09932352 0.09170852 0.0704099 -0.044771187
0000b0 91 db 03 39 2e 04 81 bd c4 46 ad 3d b2 4c 58 bd
       0.00012574928 -0.06299625 0.08460763 -0.052807517
0000c0 10 e7 9c bd 2a 17 a6 3d c4 4a bc 3c cc ba da 3d
       -0.07661259 0.08109887 0.02298487 0.1068016
0000d0 51 52 51 3c 6d 0c 62 3d 79 fd c0 3d cb cd 8b 3d
       0.012775973 0.05518763 0.09423346 0.06826361
0000e0 54 c3 a4 bc 07 69 f9 3c 4d 86 79 3d 20 d5 36 bd
       -0.020112671 0.030445589 0.060919095 -0.044636846
0000f0 9b 89 17 bd 6c ff 91 3d 5a a0 c1 bd 55 81 d3 3d
       -0.036996465 0.07128796 -0.09454413 0.103274025
000100 e1 92 57 bd 8f e8 80 bd 9d 47 1c bd 50 94 93 3d
       -0.05263031 -0.06294357 -0.038154233 0.07206023
000110 19 61 38 bd 6b 87 64 bd 63 05 c4 3d 35 cc bf 3d
       -0.045014475 -0.055793207 0.0957134 0.09365121
000120 27 aa 99 3c 33 0f 98 bd 24 f5 20 3c 8f 21 1b 3d
       0.018757893 -0.07424774 0.009824071 0.0378738
000130 91 16 67 3c bf f1 7d bd e0 fb 5b 3d 0c 13 0e bd
       0.014104501 -0.061998125 0.053707004 -0.034686133
000140 81 d3 68 bd 8b ee 7d 3b ac 45 80 3c 6b 46 87 3d
       -0.05684233 0.003874692 0.015658222 0.06605228
000150 0d 08 c3 3c 75 2a e8 bc a7 fb 96 bc 89 7c a5 bc
       0.02380755 -0.028340558 -0.018430544 -0.020200985
000160 30 73 38 3d a3 6f 1f 3d bd f3 33 3c 02 b5 0a 3d
       0.045031726 0.038924824 0.010983405 0.03386403
000170 b3 54 8c bd de c4 35 bc 80 16 2c bd 35 e9 93 3d
       -0.068520926 -0.0110943 -0.042013645 0.07222215
000180 16 93 f3 bc 1d a5 18 bc 02 9d ca bc fb c4 73 bd
       -0.029733222 -0.00931671 -0.02473307 -0.059514027
000190 31 5e 75 3d 24 1e e8 3b 71 5a b2 bc d5 e7 a4 bd
       0.05990428 0.007083671 -0.021771641 -0.08052031
0001a0 98 70 04 3d 0f 0b 93 bc e7 74 7e bd a6 bc 95 bd
       0.03233394 -0.01794961 -0.062123206 -0.073113725
0001b0 a6 45 8e 3d 6d c1 80 3d 13 84 2e 3c 01 9f 9d bd
       0.06946878 0.06286893 0.010651606 -0.07696343
0001c0 b0 c7 43 3d fc 57 41 bd 72 85 2a bd fc 17 b9 3a
       0.04779786 -0.04720305 -0.04163117 0.0014121528
0001d0 03 42 ae 3c 3a ca d0 3c 32 08 71 3d a2 e0 2a 3c
       0.021271711 0.025487054 0.058845706 0.010429533
0001e0 25 e2 1e bd 9b 0f 33 3d e0 15 96 bc a2 7c 91 bd
       -0.038789887 0.043716054 -0.018320978 -0.0710385
0001f0 cd dc 1d bd 43 1f b8 3d 5a 73 ce 3d b1 0b 2a 3c
       -0.03854065 0.08990338 0.10080595 0.010378764
000200 43 73 d1 bb 4d 82 05 bd 8a 2d 4c bc a3 1e 20 3d
       -0.006391914 -0.032594968 -0.012462029 0.039091717
000210 05 99 18 3d 2a ca b2 bb 99 87 ab 3d 0d 29 bf 3d
       0.037255306 -0.0054562287 0.083754726 0.09334002
000220 bf fc 46 3d 57 d4 bd bd a8 a5 5b 3d ea 1f 1b bd
       0.04858088 -0.09269016 0.05362478 -0.037872232
000230 a8 09 2d 3c 27 41 ad 3d 75 28 41 bd 33 3f fe 3b
       0.010561384 0.084596924 -0.047157723 0.007758999
000240 9a 6c 95 3d 98 f3 18 bd 71 93 b5 3d 7a d1 50 bd
       0.07296105 -0.037341684 0.08866013 -0.050981022
000250 86 7f 83 bd ee 2e 65 3d 94 3c b0 3d 67 41 70 3d
       -0.064208075 0.05595296 0.08605304 0.058656123
000260 23 7d d7 3c bc 2e ef bc c0 ee c5 3d 10 d2 d3 3c
       0.026304787 -0.02919709 0.096646786 0.025857002
000270 59 de 8d 3c 8f d8 0c 3d 4e 2c cf bc 22 38 47 3d
       0.017317938 0.034386214 -0.02528968 0.048637517
000280 9b c7 40 bc 2a 2c da 3c bf 4b 41 bc d6 c9 4b 3d
       -0.01176634 0.026632387 -0.011797844 0.049753033
000290 46 d0 ac 3d 90 6b 83 3d 30 06 95 3d 80 c4 05 3d
       0.084381625 0.06417 0.07276571 0.0326581
0002a0 23 2e a8 3d 2c 41 70 3d 35 f9 80 3d 44 f8 cc bc
       0.08211925 0.058655903 0.062975325 -0.025020726
0002b0 c9 1b 10 3d 48 e4 9d bc 57 c1 8b 3c ee 53 9c bd
       0.035182748 -0.019273892 0.017059965 -0.07633196
0002c0 8d 60 b2 bc 75 4b 6d bd d8 8d 62 bd 76 68 b2 3d
       -0.021774555 -0.05793329 -0.055311054 0.087113306
0002d0 95 fa 06 3d 28 38 ef 3c 82 6e 63 3d 5b 67 47 bd
       0.032953817 0.029201582 0.05552531 -0.04868255
0002e0 a3 9b 4b bd a6 92 9b bd 67 f7 49 3d 0c 50 e5 bc
       -0.049708974 -0.0759633 0.049308207 -0.02799227
0002f0 a6 b6 79 3d 57 a9 87 3d 7e 99 b5 bb 78 81 0d bd
       0.060965203 0.06624096 -0.0055419793 -0.0345473
000300 98 1a 4d bd fe 9b ce bd 85 5d bf 3d 09 02 e0 bb
       -0.05007419 -0.10088347 0.09344009 -0.00683618
000310 46 58 3b bd 7b ff df 3c 2d a8 3a 3d 25 1b 1a 3d
       -0.04573848 0.027343502 0.04557054 0.037623543
000320 3e 5d c2 3a 52 09 d7 3d d0 19 17 3d 00 93 9a 3a
       0.0014828814 0.104998246 0.03688985 0.0011793077
000330 82 df 99 bc 4d 78 92 3d 22 1d 3a 3b 07 79 16 3d
       -0.018783335 0.07151852 0.0028398712 0.036736514
000340 58 62 34 3d 42 07 bb 3d 1e d6 6e bd 1d d4 bb bc
       0.0440391 0.09132244 -0.058309667 -0.022928292
000350 c6 10 05 bc 13 27 8a bc 3d 79 60 bd 7b d8 9b 3d
       -0.008121675 -0.016864335 -0.05480312 0.0760965
000360 ed e7 b0 3d 81 0e 93 3c 30 e7 b0 bc ab b3 98 bd
       0.08637986 0.017951252 -0.021594614 -0.07456144
000370 fc 5c 8d 3c e9 d6 a5 bd d3 aa 10 3c e6 02 1c bd
       0.017256252 -0.080976315 0.00882979 -0.0380887
000380 90 57 e3 3b 2c 39 c4 3b 84 96 ad 3d f2 c1 49 3c
       0.0069379285 0.0059882607 0.08475974 0.012314307
000390 78 08 7d 3d c3 ae ee bc c4 1c 6b 3d 1d 2e 35 3d
       0.061775655 -0.029136067 0.05740048 0.04423343
0003a0 c5 20 91 3d d4 2a d7 bc 60 e6 16 bd c9 b8 97 bd
       0.070863284 -0.02626554 -0.036840796 -0.07408292
0003b0 fd 1c 12 bd 0d e7 88 3d cc 89 e5 bb 18 6d a1 bb
       -0.035672177 0.066846944 -0.007004952 -0.004926335
0003c0 dd c5 4c 3c 2e 45 27 3c f1 a3 8b bd 3f ac bd bc
       0.012498346 0.010209365 -0.06818379 -0.023153422
0003d0 37 b5 01 3c 61 5b 56 bd 3e cd 62 3d 9b 6e 2c 3d
       0.00791674 -0.05233324 0.055371515 0.04209767
0003e0 16 0d bd bd ea 21 22 bd 4d 18 9e 3c 47 28 b9 ba
       -0.092310116 -0.039583124 0.019298697 -0.0014126383
0003f0 9e 9f ff 3c 2d d3 97 3d bd d0 a3 bd bc e3 6e 3d
       0.031204041 0.074133255 -0.07998798 0.058322653

encoder.4.weight f4 [64, 256]
000000 61 d4 42 3c 65 0b 61 bd 98 3b 93 3c 8f 7d 7e 3b
       0.011891455 -0.054942507 0.017972752 0.0038832163
000010 09 80 70 bd 7d e9 65 bc 92 34 34 bd 8b da a0 bc
       -0.058715854 -0.014032719 -0.043995447 -0.01963546
000020 07 f7 ff 3c 3f 49 20 bd 13 4b 91 bd 2d 5a 1f 3d
       0.031245722 -0.039132353 -0.070943974 0.038904358
000030 67 81 98 3b cf c4 e9 3c e3 13 50 3b 19 e0 0a 3d
       0.004654098 0.028536228 0.0031750135 0.033905122
000040 94 94 94 bd 62 20 fa 3b 4d 41 1c bd 42 b4 4b 3d
       -0.072549015 0.007633255 -0.038148213 0.049732454
000050 3b a5 eb bc fd 44 12 bd 05 52 2f bd 24 c5 41 bd
       -0.028765311 -0.035710324 -0.04280283 -0.04730715
000060 b1 1f 84 bd 3f f5 77 bd a5 27 87 bd 7b ff b6 bb
       -0.06451357 -0.06053662 -0.065993585 -0.005584655
000070 8f f1 7f 3d bd b9 12 bd df b2 e8 3c c0 8c fe bc
       0.062486228 -0.035821665 0.028405605 -0.031072974
000080 0b bb 0e 3d 7a 2f 8d 3d 1a 24 f2 3b 7a f5 60 bd
       0.034846347 0.06893821 0.0073895575 -0.054921605
000090 d5 49 8d 3c 35 c3 0c bd 1b cc 05 bd 9b 5c 20 3c
       0.01724712 -0.03436585 -0.032665353 0.009787704
0000a0 4b 13 93 bd b7 01 fb 3c df 59 ad bc 4b 4b 3b bd
       -0.07181414 0.030640466 -0.021161018 -0.0457261
0000b0 88 3b 5c 3d 97 07 7b bc cd b8 16 3d c1 fa 81 bd
       0.05376771 -0.015321634 0.036797334 -0.06346656
0000c0 05 36 00 bd 18 b5 3b bd ac ad 0f 3d 5b 52 0a 3d
       -0.031301517 -0.045827 0.035077736 0.033769947
0000d0 2c 2c 32 bd 9f 80 d1 bc 03 8f 80 bc 24 7b 8c 3d
       -0.043499157 -0.025574027 -0.015693193 0.06859425
0000e0 b0 5a 79 3d 2e ca ef bc 61 b6 4e 3d ee 43 9c 3d
       0.060877502 -0.029271211 0.0504669 0.07630144
0000f0 10 78 0c bd bd a8 1b 3d 2b 70 24 3d ab 98 26 3d
       -0.034294188 0.03800272 0.040146034 0.04067294
000100 dc 35 a1 3b 13 53 a6 bd f2 8d ae 3c 36 9b 54 bc
       0.0049197506 -0.08121314 0.02130792 -0.012976458
000110 ea 97 86 bd 41 0d 09 3d 4b 34 1f 3d ab 9d 8e 3d
       -0.06571944 0.033459906 0.03886823 0.069636665
000120 dd ea 83 bd 24 30 14 bc 83 8e 3a 3d 95 92 1c 3c
       -0.06441281 -0.009044681 0.045546066 0.009556432
000130 07 91 90 3b b2 68 ce 3c b3 ea 32 bd 2d 38 f3 bc
       0.00441182 0.025196407 -0.043680858 -0.029689873
000140 83 bc 40 bd 1d 53 58 bb 79 7f 7c bd 6a a1 3a bd
       -0.04705478 -0.0033008524 -0.061645005 -0.045564093
000150 bc 28 ea bc 2b fe bb bc bf fa 88 bd 89 31 72 bd
       -0.028583877 -0.022948345 -0.06688451 -0.05912927
000160 c0 32 a1 bc f5 de 64 3b 30 85 b4 bc 48 09 40 bd
       -0.01967752 0.0034922932 -0.022036165 -0.04688385
000170 f9 b1 76 bd 1f be ec 3c cb df 25 3d a7 ae 30 bd
       -0.06022832 0.02889925 0.04049663 -0.04313531
000180 18 68 06 bd c6 0b 4a bd 6e 70 39 bd ab ec f4 ba
       -0.032814115 -0.049327634 -0.045273237 -0.0018686255
000190 49 76 2f 3c 0b d8 cb 3c ed 33 c9 bc 14 25 1b bd
       0.010709354 0.02488329 -0.024560893 -0.037877157
0001a0 68 a2 b7 bc 02 cc 65 3c 02 0b 22 3c 28 18 dc 3c
       -0.022416309 0.01402569 0.00989032 0.026866987
0001b0 86 3c 74 bd a3 e3 7e 3d 44 ad 91 bd 2c c6 5b bd
       -0.059628032 0.06222881 -0.07113126 -0.05365579
0001c0 e8 d7 51 3b ed f0 3d bd bc b0 52 3d 83 f2 33 3d
       0.003201956 -0.046372343 0.05143808 0.04393245
0001d0 c3 2a 76 bd 7b 3e f5 3c d5 1d b8 3c 40 26 66 bd
       -0.060099375 0.02993702 0.022475163 -0.05618882
0001e0 d5 51 89 bc b0 73 1d bd 31 28 d2 bb ea 7d 91 3d
       -0.016762653 -0.038440406 -0.0064134826 0.07104094
0001f0 18 54 a1 bc 11 83 d0 3c c3 e7 57 3d 93 00 8c 3b
       -0.01969342 0.025453122 0.05271126 0.0042725294
000200 be 8e 00 bd dc c1 bd 3c b9 78 32 bd 52 ed cc 3c
       -0.03138613 0.023163728 -0.04357216 0.025015507
000210 97 a5 5c bd 31 fa 47 bd d9 84 2c bd f6 6b 33 3c
       -0.053868856 -0.048822585 -0.04211888 0.010951033
000220 a9 99 10 bd fe 8b 0b 3d fc 6d 5e 3c 50 1b 76 3d
       -0.03530279 0.034069054 0.013576027 0.06008464
000230 9d ef 0b bc 9e 5e 22 bd e0 60 8a 3c 23 0b a5 bd
       -0.008541015 -0.039641015 0.016891897 -0.08058765
000240 da 48 db 3c 38 ac aa bd 85 44 26 bd 32 47 c0 3c
       0.026768137 -0.08333629 -0.04059269 0.023471449
000250 de f7 bf bd fa 83 8c bb 00 d8 a8 bd df 46 6c bc
       -0.09373449 -0.004288194 -0.08244324 -0.014421194
000260 65 fe 82 3b 1f 91 8c bd 7b a9 9b 3c bc 98 88 3d
       0.0039976113 -0.06863617 0.019001713 0.06669757
000270 5c c8 83 bc 85 56 cd 3c e6 3c df 3c 46 59 51 bd
       -0.01608675 0.02506567 0.027250718 -0.05111053
000280 0f 03 13 3d 5e e5 11 bd 26 7b 60 3d 0a ee 15 3d
       0.03589159 -0.035619132 0.054804944 0.036603965
000290 5f ea e1 bc a5 eb d0 3c 6f 34 5a bd 74 79 a1 3d
       -0.027577577 0.025502989 -0.05327266 0.078844935
0002a0 22 75 7f 3c 8c 61 ca 3c df 8b 51 bd 01 e8 6e bd
       0.0155918915 0.024704717 -0.051158782 -0.058326725
0002b0 87 2d 91 3d be e1 f6 bb a6 f3 89 3c 9d db 8f bd
       0.07088762 -0.007534235 0.016839813 -0.0702431
0002c0 b0 e6 7c bd 58 d9 41 3b 1e 37 0d 3d 7a 33 d5 3c
       -0.06174344 0.002957901 0.034476392 0.026025523
0002d0 f9 90 1e 3d 8a da c3 3c a2 c8 33 3d be 2f 67 3c
       0.038712475 0.023907918 0.04389251 0.014110504
0002e0 38 6a 10 bd fe af 62 3c d2 33 93 bd 21 4a 4c 3d
       -0.035257548 0.013835905 -0.07187618 0.049875382
0002f0 7e ad 3b bc 07 ca 12 bc 82 e7 88 3d 24 cb 76 bd
       -0.011454938 -0.0089593 0.066847816 -0.060252324
000300 ab 81 82 bc 02 47 87 bc bc 7b 84 bd c1 db 6c 3d
       -0.015930971 -0.016513351 -0.06468913 0.05782676
000310 1b 84 ec 3b 74 fa 70 bc c6 1f bf 3b a0 6b cf 3b
       0.0072178966 -0.01470815 0.005832645 0.0063299686
000320 86 f9 98 3d d8 8e 5c bd 73 d0 35 3c c8 b4 17 bd
       0.07469468 -0.053847164 0.011097061 -0.03703764
000330 e7 69 7f bd bb 43 24 bd f1 2d 45 bc 90 8f 38 bc
       -0.062356856 -0.040103655 -0.012034879 -0.011264697
000340 b0 3a 0c 3d 4d 8b 18 bd 5c fd 15 3d 2e 7a 14 3c
       0.034235656 -0.037242223 0.036618575 0.009062333
000350 30 6f 15 3d c6 12 f6 3c 2d cd bf bc ee 37 2f bd
       0.03648299 0.030038249 -0.023413265 -0.042777948
000360 86 30 2b 3d e2 7e 70 bd 4c 55 5a bd d5 57 bc 3c
       0.041794322 -0.058714755 -0.053304 0.0229911
000370 64 59 84 bd c0 a7 46 3d 4d 41 1b 3d b0 80 4b bd
       -0.064623624 0.048499823 0.037904073 -0.049683273
000380 e8 4c 2c bd 43 e6 47 bc b4 8c 87 3c 0e 2f cc 3c
       -0.04206553 -0.012200895 0.016546585 0.024924781
000390 38 87 c1 bc ca b3 00 bd d9 e8 2e 3b 69 c3 d2 3c
       -0.023624048 -0.03142146 0.002668908 0.025727944
0003a0 24 4d a4 bd 4a 2b b1 bc 12 41 4b bd 5d 69 36 bd
       -0.08022526 -0.021627087 -0.049622603 -0.044534076
0003b0 85 47 1c bd d6 c7 92 bc 4d 64 67 bc 2a 9f 79 3d
       -0.038154144 -0.017917555 -0.014123035 0.060942806
0003c0 c8 1c 95 bd bc 52 65 bb 43 3d 21 bd 4e 56 18 3c
       -0.0728088 -0.003499194 -0.039365064 0.00929792
0003d0 6f b8 0c 3d 8d 80 32 bd 97 0b 30 bd 48 fb 9a bd
       0.034355577 -0.043579627 -0.042979803 -0.07567459
0003e0 c3 a5 7f 3c 14 5d 1e 3d b0 f8 e6 3c 73 ee 26 bc
       0.0156034855 0.038662985 0.028194755 -0.010188687
0003f0 52 2e 15 bc e6 36 8f bc 08 da cb 3c f5 70 38 3d
       -0.009105282 -0.017482232 0.024884239 0.0450296

encoder.4.bias f4 [64]
000000 eb 23 62 bd 8d 2b 90 bd a9 11 f2 39 ce 2f 11 3d
       -0.055210035 -0.07039557 0.00046170995 0.03544598
000010 87 eb 7d 3d d0 00 f1 bb b4 b0 80 3c 4b 19 80 3d
       0.061992195 -0.007354833 0.015709259 0.06254824
000020 41 a8 f4 bc af 07 bf bc b0 ac 11 3d a3 37 7b 3d
       -0.029865386 -0.023319094 0.03556508 0.061332356
000030 4b e2 b9 bc b2 a4 b7 3b 0d 8c e9 3c fc ae 8d bc
       -0.022690913 0.00560435 0.028509164 -0.017295353
000040 50 42 d8 bc a1 a2 69 3c 0e 98 3d 3c ce d1 0e bd
       -0.026398808 0.014259965 0.011571897 -0.034868054
000050 35 eb fe 3c f0 85 d7 bc 1a dc 25 bc 12 96 59 bd
       0.031118015 -0.026308984 -0.010123277 -0.053121634
000060 aa 6d 00 bc 7b 7d 92 ba 91 c3 b6 3c a9 9a 0b bc
       -0.007838646 -0.0011176312 0.02231005 -0.008520761
000070 e8 58 0d bd 3f 38 5c bd 68 0a 2f 3d 9a f1 35 3c
       -0.034508616 -0.053764578 0.042734534 0.011104966
000080 e2 65 33 3c 8e 6d e0 bc 1f 47 ea 3b 0f 36 46 bb
       0.010949584 -0.02739599 0.0071495916 -0.0030244624
000090 bf ed 9e bd 54 c0 4b bc f1 d8 39 3d d7 4c 47 bb
       -0.0776019 -0.012435991 0.045372907 -0.003041079
0000a0 f0 ae 99 3d 07 bd 8c 3d 0f e2 1b bd b9 12 4d 3c
       0.0750407 0.068719916 -0.038057383 0.012516671
0000b0 3f a2 94 bd 45 bb ea 3c b8 19 45 3d 9d 4b df bc
       -0.072575085 0.02865375 0.04812023 -0.027257735
0000c0 f9 b1 5d 3c 34 1b 84 bd 3f 25 1a bd 5d 97 23 bd
       0.0135312015 -0.06450501 -0.037633177 -0.039939273
0000d0 75 f9 2e bc 35 7d 80 bd 98 41 ad 3c 6c 6a 0b 3d
       -0.010679592 -0.06273881 0.021149442 0.03403704
0000e0 04 9f 2d 3d 25 7a cb 3b 30 98 86 bd 2b 9b 17 3d
       0.042387977 0.006209629 -0.06571996 0.037013214
0000f0 cd 14 96 bc 83 68 ef 3b 49 7f c0 3c 82 79 e1 3c
       -0.018320465 0.00730616 0.023498194 0.02752376

decoder.0.weight f4 [256, 64]
000000 97 8f 11 3d d9 a1 eb 3d 2a c4 f7 bc 21 12 5b bd
       0.03553733 0.11505479 -0.030244906 -0.053484086
000010 6c 4a 05 be d9 1c 30 bc ab b8 43 bc 3f 7f 71 bd
       -0.13016671 -0.010749065 -0.011945884 -0.058959242
000020 a9 0e 17 3e e4 cf 4d 3e be 3a d9 bc 9b 13 0d bd
       0.14751686 0.20098835 -0.026517268 -0.034442525
000030 4e cd 52 3d 16 a1 bc 3d ce 50 38 be b6 9a 8c bd
       0.051465325 0.09210412 -0.17999575 -0.06865446
000040 5c 74 aa 3c b0 b2 ac bd dd a0 b1 3d da 0f f3 3d
       0.020807438 -0.084325194 0.0867326 0.11868258
000050 60 67 ee 3d 26 2e 0b 3d 38 b5 00 3e 4f df 38 3b
       0.11640811 0.033979557 0.1256913 0.0028209274
000060 1e 5f 94 bb 42 7e be bb 12 96 ef bd 5e 05 1e be
       -0.0045279404 -0.005813391 -0.116985455 -0.15431735
000070 f8 94 54 bc 63 ea e1 bd d1 df f1 3c 26 f0 27 3d
       -0.01297497 -0.11031034 0.02952567 0.041000508
000080 03 f9 7b bc 2d d4 d7 3d bc 35 6e 3d 81 93 31 3d
       -0.015379193 0.10538516 0.058156714 0.04335356
000090 1a 82 e1 bc 22 47 77 3d c3 ac 43 bd af 96 b5 ba
       -0.027527858 0.060370572 -0.04777218 -0.0013854111
0000a0 0a 16 ae 3d ae 0e ae bd 97 29 8d bc 7b 93 eb bd
       0.08500297 -0.08498894 -0.017231746 -0.11502739
0000b0 96 06 8d bd ee 58 46 bd 4c f1 42 bd ea 9f 69 3d
       -0.06886022 -0.048424654 -0.0475934 0.05703727
0000c0 fb 55 df bc c7 6d eb bd 05 e1 ac 3c a7 5a 85 bb
       -0.027262678 -0.11495548 0.021103391 -0.0040696445
0000d0 bc 9a 84 3d 3c 8d 4c bd 20 df 0e be 76 a0 f2 3b
       0.06474826 -0.04993938 -0.13952303 0.0074043823
0000e0 bd 46 8d 3d 6b 08 7f bd 83 b2 2a bd 43 95 9b bd
       0.06898258 -0.062263887 -0.04167415 -0.07596829
0000f0 8d 96 fc bd 34 6c 8f 3d df 8b f4 bd 33 77 64 3c
       -0.12333403 0.0700306 -0.11940741 0.013944435
000100 39 31 82 bd 5c 79 86 3d 83 7a bd bb d7 a8 04 3e
       -0.06357045 0.06566116 -0.005782427 0.12955032
000110 48 7a b9 3d b4 75 ea bb fc cb 58 bd 5c eb f5 3d
       0.090565264 -0.0071551446 -0.05292891 0.12007782
000120 52 14 f7 3d 01 55 18 be 3b 61 0c 3e 9e 71 90 3d
       0.12064423 -0.14876176 0.13708965 0.07052921
000130 22 9d dd 3d e3 65 36 bd 22 88 15 bd e7 78 32 bb
       0.10820986 -0.04453076 -0.03650678 -0.0027232708
000140 b3 6e a3 3d d5 87 78 bd 86 88 08 3e a7 f2 42 3d
       0.079800986 -0.060676415 0.1333333 0.047594693
000150 bd da c9 3d 81 38 5c bd db cf c5 bd 19 f4 f8 3d
       0.09856174 -0.053764824 -0.09658786 0.12155933
000160 9c d9 e8 3b 8d 34 84 3d 2c 00 d7 bd 7a ad d6 3d
       0.007106019 0.06455336 -0.1049808 0.10482307
000170 80 ab 52 3d 06 a8 a1 bd ed cc 57 bd 07 1e e6 bd
       0.051433086 -0.07893376 -0.052685667 -0.11236196
000180 02 12 f2 3d 0e 6d 0d 3e 2a be b3 3d 5c f9 ce bd
       0.11819841 0.13811132 0.08776505 -0.10106155
000190 9e 2b e2 3d 0a cd eb 3d 64 db 33 bd 03 ac b9 bc
       0.110434756 0.115137175 -0.0439104 -0.02266503
0001a0 cc 6b b0 3a 1a 76 f3 3b 6f 98 ca bc 14 8f cc 3d
       0.001345986 0.0074298503 -0.02473089 0.099882275
0001b0 87 32 91 bd 0b 1b a1 3d 70 57 aa 3d 62 89 a7 3d
       -0.070897155 0.07866486 0.08317459 0.081805006
0001c0 e0 5a 09 bd 5c 07 c4 bd ba 50 ce bc fd eb 95 bd
       -0.03353393 -0.09571716 -0.025184978 -0.07320402
0001d0 c5 46 32 3d a0 b3 16 3d ed 13 f3 bc 44 c9 96 3d
       0.043524522 0.036792397 -0.029672587 0.07362607
0001e0 3c 7f c9 bd 47 37 45 bd e7 0b b4 bb 26 c4 19 bd
       -0.09838721 -0.04814842 -0.005494583 -0.037540577
0001f0 d1 63 4e bd fd 04 d7 bd 9b 4b 13 3e dd 6f 1a 3e
       -0.05038816 -0.10498998 0.1438431 0.15081735
000200 c1 aa c5 bd 96 5f 86 bd e1 19 9e bd fe 83 4a bc
       -0.09651709 -0.065612 -0.0771978 -0.012360571
000210 0f 41 06 be dd 01 9b 3d 48 c2 8a 3d b9 a1 07 3e
       -0.13110755 0.07568715 0.067753375 0.13245286
000220 c0 43 95 3c 8a 20 8b bd 13 d7 71 3c c4 cc 01 3e
       0.018220782 -0.06793316 0.01476075 0.12675768
000230 7c 7a 5a bd 51 5d e1 bc dc ef bf 3c 45 b1 1a 3d
       -0.053339466 -0.027510317 0.023429804 0.037766714
000240 43 16 81 bd a2 cc 85 bc 6f 8f 0e 3e 14 a0 c6 bd
       -0.06303074 -0.016332928 0.13921903 -0.09698501
000250 e9 78 93 3d 0f 9f d4 3c 51 30 d9 bc 75 4b 1e 3d
       0.07200796 0.025954751 -0.026512297 0.03864618
000260 e0 f7 ce 3d 09 e2 d2 3d da 81 c2 bc 8a 59 fb 3d
       0.10105872 0.10297019 -0.023743559 0.122729376
000270 a6 e3 d6 3d 8d c5 4b bd f3 44 d1 3d 97 3e 9b 3d
       0.10492639 -0.049748946 0.10218229 0.075802974
000280 0c 09 8a 3d 70 d1 47 bd b8 e0 7b 3d b6 f8 be bd
       0.06740007 -0.04878372 0.061493605 -0.093247816
000290 0a 29 0b bd c1 1b d6 3d 77 9e 4f 3d 48 c4 86 bd
       -0.033974685 0.104545124 0.050688233 -0.065804064
0002a0 1d 9b 1b bd a0 ff 88 bd 86 58 94 bd b6 3c eb 3c
       -0.037989724 -0.066893816 -0.07243447 0.028715473
0002b0 df 7d f2 3c 17 97 13 bd 6a 25 e2 3b e5 14 06 3e
       0.029601036 -0.036032762 0.0069014328 0.13093908
0002c0 0f 58 af 3d 10 da 0a 3e dc c6 6b bc 0f 31 14 be
       0.08561718 0.13559747 -0.0143906735 -0.1447184
0002d0 86 3d 83 3d ae 9e be bd 36 0e 11 be f7 70 3a bd
       0.06408219 -0.093076095 -0.14165577 -0.045517888
0002e0 0a 76 a1 bd a8 ff ce 3d e4 3f 73 3b 89 9a bc 3d
       -0.07883842 0.10107356 0.003711694 0.09209163
0002f0 f4 69 1b 3d 00 cf d1 3d 3e d7 d3 bc f6 49 ac bd
       0.03794284 0.1024456 -0.025859471 -0.084125444
000300 03 ad d2 bd aa e4 62 bd f6 1c db bd 75 81 dc bd
       -0.102869056 -0.055393852 -0.10698883 -0.107668795
000310 50 69 0c be 81 b9 0e 3e e5 0f b0 bc 6c 0e 8d bd
       -0.13712049 0.13937952 -0.021491954 -0.068875164
000320 db f5 09 3e df 6f 5e bd dc 9e 9f 3d d9 80 af 3d
       0.13472693 -0.054305907 0.07793972 0.085694976
000330 73 ea e3 3d c2 cf d7 3d 7a fb 31 3d 17 3c 82 3d
       0.11128702 0.105376735 0.043452717 0.063591175
000340 b5 7b 2d 3d ee 88 ad 3d 2b 11 9c bc e3 66 bd 3d
       0.042354304 0.08473383 -0.019051155 0.0924814
000350 4b 7e be 3d 9b 19 75 bd ed 98 e1 bd 57 5f 51 bd
       0.09301432 -0.059838872 -0.110154964 -0.051116314
000360 1a e6 4c 3b 40 51 d2 3d ea 38 a5 bc b2 1e e6 3d
       0.003126508 0.102694035 -0.02016874 0.112363234
000370 2b 99 e1 bd 5b d3 19 be c2 3f 27 bd 87 79 d1 bd
       -0.110155426 -0.15022032 -0.04083229 -0.102282576
000380 d7 cd 1d 3d 86 e9 d2 3d 74 8d 99 3c ae 7b e3 bd
       0.038526382 0.10298447 0.018744208 -0.111075744
000390 22 d6 e1 bd 34 bf 0b 3e 4c cf e7 bd 70 af 18 3d
       -0.11027171 0.13647157 -0.113188356 0.037276685
0003a0 8d f9 8e bd fe 86 df bc cf 85 b6 bd 2f b4 68 3a
       -0.06981192 -0.027286049 -0.08912241 0.0008876947
0003b0 8a 72 a4 bb e6 f4 63 3c 4b bb 49 bd 6d ea af bd
       -0.005018537 0.013913369 -0.049250882 -0.08589635
0003c0 f4 19 01 3e 6a 21 2e 3d 0b 62 00 3d aa 1b 2c 3d
       0.12607557 0.042512335 0.0313435 0.04201857
0003d0 fa 5e bb 3d b5 11 2a bc 54 84 3f bd f7 c6 7b 3d
       0.09148975 -0.010380198 -0.046757057 0.061469045
0003e0 86 29 40 3a 51 16 7a 3d 90 1c 8b 3d 34 3b e7 bd
       0.0007330406 0.06105644 0.06792557 -0.11290589
0003f0 8a f0 c7 bd 98 07 a3 bd f9 35 d7 3d 91 0e 06 3c
       -0.09762676 -0.07960433 0.10508341 0.008182184

decoder.0.bias f4 [256]
000000 9b c8 5a bd 68 25 01 3e e7 81 75 3d a5 f7 b3 bc
       -0.05341397 0.12611926 0.059938338 -0.021968672
000010 3e 06 de 3d 92 88 da 3d 14 20 05 3e 6f c2 b9 bc
       0.10841034 0.1067058 0.13000518 -0.022675721
000020 86 26 7b bd 2e f3 c4 bc c6 2d 89 3d 86 60 08 3e
       -0.061316036 -0.024041738 0.06698184 0.13318071
000030 83 71 12 3e a1 18 66 3d af 8f c0 3d 38 09 9e 3d
       0.14301114 0.05617583 0.094024055 0.07716602
000040 8a bd 6f bd 23 3c 11 bd 05 f5 96 bd b3 fb 98 3c
       -0.058530368 -0.03545774 -0.073709525 0.018674707
000050 ad 6f 4b bd 62 61 72 bd 1b 9b 01 3e 6e 11 bb bd
       -0.04966705 -0.059174903 0.12656824 -0.09134184
000060 74 e9 22 3d 1d b0 67 3c 36 3a c1 bd dc cf db 3d
       0.03977342 0.01414111 -0.09434931 0.107330054
000070 ff ed a7 bd 01 ba 42 3d 63 a0 c4 bd 38 ab fb 3d
       -0.08199691 0.04754067 -0.09600904 0.12288517
000080 73 b7 a0 bd 7a 57 43 3b 01 fe 8d bd fb 61 e9 3d
       -0.0784749 0.0029806779 -0.06933213 0.113956414
000090 19 e1 e2 3b 35 72 f5 3d 53 e4 8f 3d fd a6 fd 3d
       0.0069238064 0.11984674 0.07025971 0.12385366
0000a0 6a dc e0 bc fe 77 99 3d 62 74 eb 3d 4e 1e 06 3e
       -0.027448852 0.0749359 0.11496808 0.13097498
0000b0 93 43 fc bd 63 65 c2 bd 55 cb b2 bd 11 eb d7 bd
       -0.12317576 -0.09491994 -0.08730189 -0.10542882
0000c0 c3 3a 0e 3e 85 af 6f bd 3d 1d 64 bd f6 d1 3d 3d
       0.13889603 -0.058516998 -0.055691946 0.046342812
0000d0 cc 2f dd bd be 97 09 bd 2d 46 09 3e eb 33 b6 bd
       -0.10800132 -0.03359198 0.13405676 -0.08896621
0000e0 d9 05 43 bd 62 db 08 3e 4b b2 e9 3d 99 a2 d3 3d
       -0.047613 0.13364938 0.1141096 0.103337474
0000f0 d7 78 31 3d 96 8a bd 3d db 54 05 bc f7 af 11 3e
       0.043328132 0.09254949 -0.008137907 0.14227282
000100 45 f6 9b 3d c8 73 83 bc cb 15 96 3d df 56 39 bd
       0.076153316 -0.01604642 0.073283754 -0.045248862
000110 13 07 dc bd 25 43 78 3d 1d 92 0e 3d 0b 8b ee bd
       -0.10743537 0.06061091 0.034807313 -0.11647614
000120 31 ab 92 bd 2a 9b 8d 3d 3b 0d 06 3e 37 02 b3 bc
       -0.071615584 0.06914361 0.13090985 -0.021851642
000130 35 61 ce 3d d9 94 0e 3d 26 ec 75 bd 07 7a ca 3b
       0.100771345 0.03480992 -0.06003966 0.0061790976
000140 41 ec 57 3d 8e 37 96 3d c8 b2 d6 39 b4 93 c5 3d
       0.052715544 0.07334815 0.00040950463 0.09647313
000150 74 95 f0 3d d7 53 9a bc 4e ac 0b 3b 19 16 8e 3d
       0.11747256 -0.018838806 0.0021312418 0.069378085
000160 9b 19 a1 3d de 51 0d bd e5 6b de bd be 59 c5 3d
       0.07866212 -0.034501903 -0.10860423 0.096362576
000170 88 83 a1 bc c2 52 ca bd 63 8c a7 bd 99 9a 14 3e
       -0.01971604 -0.09879066 -0.081810735 0.145121
000180 40 19 aa bd d4 4b ba 3d 2f fe ce bc ee 59 a2 3c
       -0.08305597 0.09096494 -0.025267689 0.019818272
000190 b4 9e 9b bd 6b c2 01 3e 70 63 9f 3c 8c 7b 0c bd
       -0.075986296 0.12671821 0.019456595 -0.03429751
0001a0 cd 4c 5c 3d 0c 17 cd bd ca 7f f6 3d 5c 74 01 3e
       0.05378418 -0.100141615 0.120360926 0.12642044
0001b0 8e c9 a7 3d 62 e3 9a 3d a5 79 83 3d d6 5c d4 bc
       0.081927404 0.07562901 0.06419686 -0.025923174
0001c0 7c ca 47 bd 15 0d b9 3d b2 3f 37 3c 5e 65 8c bd
       -0.04877709 0.09035698 0.01118462 -0.06855272
0001d0 85 09 0f 3d 83 44 7c bd 13 b2 0e bd 3d 55 96 bb
       0.034921188 -0.061588775 -0.034837794 -0.004587798
0001e0 79 44 ff bc 84 70 9c bd 59 70 3c 3d 87 a8 10 bd
       -0.03116058 -0.07638648 0.04600558 -0.03531697
0001f0 b4 54 c3 bc fb d9 94 bb 6a 62 99 3d 61 b1 0b 3e
       -0.0238441 -0.004542587 0.07489474 0.13641883
000200 c9 3a a4 bd 6d c4 f4 3d 17 f5 c2 3d d9 90 61 bb
       -0.08019025 0.11951528 0.095194034 -0.0034418611
000210 ba b8 68 3d 43 15 01 3d 3d 15 19 3d 37 2d 00 bd
       0.056816794 0.031514417 0.03737377 -0.03129312
000220 7a db 8c bd 31 0b ec 3c a9 e0 eb 3d ac 36 cf bd
       -0.06877799 0.02881393 0.1151746 -0.1011785
000230 c9 a4 2c bd 67 67 0e 3e cb 93 b3 3b 61 1c e6 3c
       -0.04214934 0.13906632 0.005480265 0.028089704
000240 92 58 88 bd 82 6d 96 3c 6d f6 5f bd 19 83 a5 3d
       -0.066575184 0.018362764 -0.05467837 0.080816455
000250 a8 53 4b bc 80 8c f8 3d 38 50 d3 bc a3 a0 d3 bd
       -0.012410082 0.12136173 -0.025795087 -0.103333734
000260 68 cc f1 3d f8 8b 46 bd bc d9 c4 3c 23 6a 17 3d
       0.118065655 -0.04847333 0.024029605 0.036966454
000270 0b e5 d2 bd dc 23 44 bd 4f 5d 70 3d e5 ae 21 bd
       -0.10297593 -0.04788576 0.058682736 -0.039473433
000280 03 7c 8d 3c 7f 2c b9 3b 25 af 44 3d 45 f2 46 3d
       0.017271047 0.0056510563 0.048018593 0.04857089
000290 c6 b0 18 3d 0e 50 95 3c ed 33 70 3d 24 7d d7 3b
       0.03727796 0.01822665 0.05864327 0.006576197
0002a0 8c 8a 0e 3e c2 8a b6 bd 48 60 a4 3d 5e 4d 8d 3d
       0.13920039 -0.08913185 0.08026177 0.06899522
0002b0 51 cc a6 bd 31 ce af bc 9c 90 c8 bd 1a 59 14 3e
       -0.08144439 -0.021460624 -0.09793207 0.14487115
0002c0 66 03 71 3d 04 38 10 3e b7 0d b1 3d c8 76 9f 3d
       0.05884113 0.14083868 0.08645194 0.077863276
0002d0 72 57 40 bd 91 c6 d6 3c f0 f0 42 bc 1b 08 24 3d
       -0.046958394 0.02621773 -0.011898264 0.040046792
0002e0 04 53 02 3e b6 4e 85 3d 1f 31 b5 38 29 76 d5 3d
       0.1272698 0.065091535 8.639902e-05 0.10422928
0002f0 10 d3 09 3d 64 5a 41 bc 6a f6 94 bd e9 e0 b5 3d
       0.03364855 -0.011801336 -0.07273562 0.08880789
000300 75 ba a8 3d 76 72 02 3e 6f 04 b4 3c f5 48 03 be
       0.08238689 0.12738976 0.02197477 -0.128208
000310 54 3d 90 bd d7 af 39 bd 29 bc 8a 3d 8b 97 45 3d
       -0.070429474 -0.04533371 0.0677417 0.048240226
000320 44 0b 1b 3c a8 12 2e bd 87 dd 53 bd 5d f4 2e 3d
       0.009463135 -0.04249826 -0.051724937 0.04271351
000330 0c d1 0d 3c 09 f2 3c bd 5e 60 be bd 94 e1 54 3d
       0.008655798 -0.04612926 -0.09295724 0.05197294
000340 b5 2e b0 3d 0b 27 ea 3d 4f 16 e0 3d 50 8c 1a 3e
       0.08602659 0.11433228 0.10941755 0.15092587
000350 ef b5 43 bd 89 85 80 3c dc a8 c3 3d 2c 91 a8 3d
       -0.047780927 0.015688675 0.09553692 0.08230814
000360 14 d5 04 3e 99 26 bf 3d 30 39 9b 3d 40 14 95 bd
       0.12971908 0.09333534 0.07579267 -0.07279253
000370 2a 71 da 3d c9 00 07 bd 79 e0 ce 3d 26 87 aa bd
       0.106661156 -0.032959733 0.101014085 -0.08326559
000380 49 b2 37 3a 82 d6 5e bd a9 56 b4 bd b8 b5 a3 3d
       0.00070074626 -0.05440379 -0.088055916 0.079936445
000390 30 ad 7a bd 99 f6 06 3d b8 55 e6 3d 38 b3 2c 3d
       -0.06120032 0.032950018 0.11246818 0.042163104
0003a0 dc 02 df 3d d7 9c 3a 3d 93 d1 98 bd 3d 3c b4 bc
       0.10889217 0.04555973 -0.07461848 -0.02200138
0003b0 d4 2b b7 3d 26 23 25 bd 12 20 fd bd b9 66 dd 3d
       0.089439064 -0.040316723 -0.123596326 0.108106084
0003c0 5e 36 08 3e eb 35 bf 3d 98 b8 a4 3d 89 4c e4 bb
       0.1330199 0.09336456 0.08043021 -0.0069671315
0003d0 db ae 06 3d ec da 92 3d 36 dc 07 3e 6d dd bb bd
       0.0328816 0.07170662 0.13267598 -0.09173093
0003e0 f6 1d 62 bd d1 be e1 bd 3f 0a f2 bd 4c d8 d5 3d
       -0.055204354 -0.110227235 -0.118183605 0.10441646
0003f0 ce 25 9e 3d 83 91 fb bc 23 db 3a bd 29 2c c2 ba
       0.077220544 -0.030709034 -0.04561914 -0.0014814186
